task_3/model_weights/actor.pth (torch, 536447 bytes, 8 tensors)

fc1.weight f4 [256, 4]
000000 69 fc 9b be 6a 44 0c 3e 08 34 da 3e 5a 35 7b 3e
       -0.3046601 0.13697973 0.42617822 0.24532071
000010 d6 95 3d be bf ed f8 3e 12 b4 9c 3e 0d d0 05 3f
       -0.18514189 0.48618886 0.30606133 0.52270585
000020 71 32 c7 be df 8b 82 bd 13 dd e5 be 52 69 28 3e
       -0.3890567 -0.063743345 -0.4489523 0.16446427
000030 60 dd 09 3d a8 30 a1 bd 4e 77 81 be 80 28 02 3e
       0.033658385 -0.078706086 -0.25286335 0.12710762
000040 f8 37 dc be 04 92 b7 3e c0 3e 85 3e 3a f7 a9 3e
       -0.4301145 0.3585359 0.26024437 0.3319643
000050 50 3e d9 3a 52 91 b7 bc 80 f0 bd 3e 53 fd 06 3f
       0.0016574357 -0.022408161 0.3709755 0.5273029
000060 a8 96 9c be 1a 6f d3 be 2b 93 55 3d c5 eb cc 3d
       -0.30583692 -0.412957 0.052142303 0.10005907
000070 bd 8a d8 be 98 d1 fe be 53 50 aa 3e a0 23 5d 3e
       -0.4229335 -0.49769282 0.33264408 0.21595621
000080 10 00 cf bd 38 1f a0 3d 66 54 b7 3e 80 1a fc bb
       -0.10107434 0.078184545 0.35806578 -0.0076935887
000090 4e c1 49 3e 6f 6e f5 3e 40 d6 63 bc ea 8e df 3d
       0.19702646 0.47935817 -0.013906062 0.109159306
0000a0 2d f9 a6 3e 32 74 c5 bd 54 f5 92 bd a4 63 3b bd
       0.3261198 -0.09641303 -0.07175699 -0.04574932
0000b0 36 f2 44 3d 1b a7 7c 3c c1 7a e5 3d 71 69 15 be
       0.048082553 0.0154207 0.11205054 -0.14591004
0000c0 10 f6 0d be 40 75 62 3c f8 11 93 3e ca 01 8e 3e
       -0.13863397 0.0138219 0.28724647 0.2773574
0000d0 c0 96 ed be fd ab f5 be e2 e1 e4 3e 9c c9 e0 3d
       -0.46404076 -0.4798278 0.44703585 0.10975954
0000e0 31 07 aa bd cc b9 00 3e 56 a4 da be 37 a5 63 bd
       -0.08302153 0.12570876 -0.42703503 -0.055577483
0000f0 5f 58 d5 be b3 73 bf 3d e0 61 0d 3e 30 28 ba 3d
       -0.41668984 0.0934824 0.13806868 0.090896964
000100 9e a0 5e 3e 51 0a 06 3e b6 0a c5 be 37 8d 11 bf
       0.21740958 0.13089873 -0.38484734 -0.568561
000110 52 68 86 3e 79 33 de be 1d a1 b6 3d 48 d5 29 be
       0.26251465 -0.43398646 0.08917449 -0.16585267
000120 53 88 33 3e 8f 58 80 be 25 3f 6a 3e 28 89 02 3f
       0.17532472 -0.25067565 0.2287565 0.50990534
000130 98 2e d6 be 69 0f 42 3d fe 9a c3 3e 87 30 16 3d
       -0.41832423 0.047377978 0.38204187 0.036667373
000140 74 d8 a4 bd 6f c5 e6 3e 23 24 bd be 49 7f 18 3f
       -0.08049098 0.45072505 -0.36941633 0.5956922
000150 e6 cf 78 3e 67 ad 6d bd 85 ca 40 3d 3d 11 ed be
       0.24298057 -0.058026697 0.047068138 -0.46302214
000160 d4 86 5e be 01 c9 ab 3e 4a f3 f3 be 3c 37 73 3e
       -0.2173112 0.3355179 -0.47646552 0.23751539
000170 4b da e5 be 59 09 8c be 18 15 39 be 8b ee 2f be
       -0.44893107 -0.27350882 -0.18074453 -0.1718084
000180 a4 cf 20 bd 70 fa 2b bd 21 7c 86 3e 10 48 53 3e
       -0.03926052 -0.041986883 0.26266578 0.20632958
000190 00 04 d1 3e 2a a2 e5 bd 9c d7 a4 be 4a 76 4c bd
       0.40823364 -0.11212571 -0.32195747 -0.049917497
0001a0 d4 39 aa be a8 2b 3d be 92 be aa 3e 5c 2e 69 be
       -0.33247244 -0.18473685 0.3334852 -0.22771591
0001b0 d9 20 d8 3e 6e 6a 96 be 65 8c 9a 3d 26 fb 03 3f
       0.4221256 -0.29378074 0.075463094 0.515551
0001c0 cf ae d1 3e 87 3d 47 3e 28 48 ba be 34 20 02 be
       0.4095368 0.19457065 -0.36383176 -0.12707597
0001d0 1d 5b e5 3e 60 3c 28 be 83 a5 2a 3d b1 9d f9 3d
       0.44796076 -0.16429281 0.04166175 0.121882804
0001e0 9c dc fa be aa e1 ba 3e 67 15 69 3b a1 b6 0b 3e
       -0.48996437 0.36500293 0.0035565735 0.13643886
0001f0 10 66 83 be 3e 88 8c 3e 72 9d c1 3e 2b a7 d9 3e
       -0.25663805 0.27447695 0.37815434 0.42510352
000200 fe b0 1c 3e 59 61 a0 ba 30 b4 ac 3e 1f 92 cc be
       0.15301892 -0.0012236043 0.33731222 -0.39955232
000210 02 eb 13 3e 3c 3a ea be 07 17 01 bf 99 d7 01 bf
       0.14445117 -0.45747554 -0.5042576 -0.507196
000220 46 4e 4a bd 02 c1 b8 3c eb 10 91 be 59 75 cd bd
       -0.049391054 0.02255297 -0.2833322 -0.10032148
000230 a1 88 cc be d2 bc 05 3f 3f b4 d7 3e 0e 74 cd 3e
       -0.3994799 0.5224124 0.42129704 0.40127605
000240 3c a4 b1 be fa 4d 88 be e6 3f a4 be b0 1a 4e bb
       -0.34695613 -0.2662199 -0.3208 -0.0031449012
000250 e0 cc 16 3e 6b 89 3a 3e fe 4d ac 3e a7 3a ec bd
       0.14726591 0.18216483 0.33653253 -0.115346245
000260 39 75 ee be b9 a2 d5 bd 41 58 30 be 8d f0 6e be
       -0.4657381 -0.104314275 -0.17221166 -0.2333395
000270 c6 64 c2 3e 8e b0 05 bb 3c 36 14 bf f9 0c 3e be
       0.3796751 -0.0020399424 -0.57895255 -0.18559636
000280 8f 11 33 bd 09 78 14 3e 47 bb ed be b5 75 01 bf
       -0.043717917 0.14498915 -0.46431944 -0.5057023
000290 2d dc 19 be 77 5f c1 3e 66 07 6f bd d3 06 c9 3e
       -0.15025397 0.37768146 -0.058356665 0.3926302
0002a0 f8 4b e6 3e a3 1a 1f be 4f 17 e7 be bd d4 fc 3e
       0.44979835 -0.15537505 -0.4513497 0.49381056
0002b0 cc 52 3e be 4e 6a 0d 3e 12 ba ab bd 0e 98 b3 be
       -0.18586272 0.13810083 -0.083850995 -0.35076946
0002c0 ee f3 79 3e cc fe b0 be a3 57 b2 3e 54 ff 82 3e
       0.24409458 -0.34569395 0.34832487 0.25585425
0002d0 21 02 5f 3e 99 ff 1d be 90 54 62 3d 2a 86 8a be
       0.21778156 -0.15429534 0.055256426 -0.27055484
0002e0 c4 aa 25 3e 13 5e 23 3e 17 eb 9e 3d ac 71 da 3d
       0.16178423 0.15953855 0.077596836 0.106662124
0002f0 fc 69 a8 3e a8 e3 a4 bd fd 00 e9 be d4 eb 04 bf
       0.3289336 -0.080512345 -0.45508566 -0.51922345
000300 89 f7 f4 bc d2 9d 64 3e 55 63 00 3e 0c 5d 7c bd
       -0.02990319 0.22325829 0.12537892 -0.061612174
000310 e8 b9 92 3e 12 be ba be 6a 7a e5 3e 79 60 cb be
       0.2865746 -0.36473137 0.44819957 -0.3972204
000320 10 8a c3 bc 8a 4f 4c 3e 73 1f 91 3e 36 fd d6 be
       -0.023869544 0.19952217 0.28344306 -0.4199006
000330 92 78 5d 3e 23 81 e5 3e 25 71 01 3e cd 93 d6 3e
       0.21628025 0.44825086 0.12640817 0.41909638
000340 8a 5f c2 bd 43 7a e6 be 1f d0 21 3e e0 22 d1 be
       -0.09490879 -0.45015153 0.15802048 -0.4084692
000350 0d c5 6c 3e f3 c8 20 3d bc 1a 73 3d a9 be f2 be
       0.23122044 0.03925414 0.059351668 -0.47411087
000360 b6 0a d5 3e 39 df 2a 3e 4c f7 07 3e c5 81 a5 be
       0.41609734 0.16686715 0.1327793 -0.3232557
000370 78 73 0b be 3c 0f 54 bd 70 f3 92 be d1 80 1a 3f
       -0.13618267 -0.05177234 -0.28701353 0.6035281
000380 35 e5 ff bc ac 72 eb 3d 99 53 bd be 94 e1 ad be
       -0.031237224 0.11496481 -0.36977842 -0.33961165
000390 85 36 5a bd b3 6d 29 3e b6 79 80 be 84 e1 1b 3f
       -0.05327465 0.16545753 -0.25092858 0.60890985
0003a0 28 83 ad be 8e d3 e1 be 13 fc fa 3e 86 d2 6b be
       -0.33889127 -0.44106716 0.49020442 -0.23029527
0003b0 f4 50 f6 be a8 9c 25 3e 46 1d a1 be bc 6a 9a be
       -0.48108637 0.16173041 -0.31467646 -0.30159557
0003c0 ed 79 36 3e 0c f0 33 3e 56 e1 88 3e 6e e5 d3 3e
       0.17819948 0.1757204 0.26734418 0.41385978
0003d0 e9 d6 e2 3e 40 53 60 bd 25 83 81 be 49 cb d7 be
       0.44304588 -0.054766893 -0.25295368 -0.42147282
0003e0 01 5f bb be f9 04 cc be 90 33 db be 3c 30 07 3f
       -0.3659592 -0.39847544 -0.42812777 0.52807975
0003f0 f6 63 dc be 30 e8 20 3e bc a9 94 be 9d 17 ec be
       -0.43045014 0.15713573 -0.29035747 -0.46111766

fc1.bias f4 [256]
000000 f5 4d ad be 90 a0 f6 3c c5 6e 07 bf 90 de d3 be
       -0.3384854 0.030105859 -0.52903396 -0.4138074
000010 cc 94 f5 be 8a 4c 7d 3d 2c bb b3 be 98 9c 11 3d
       -0.47965086 0.06184057 -0.35103738 0.03554973
000020 86 27 e7 be 24 cc 50 bd 04 41 8c 3e 12 b6 05 be
       -0.4514734 -0.050975934 0.27393353 -0.13057736
000030 90 82 fd be ef d6 1e 3e de 70 ac 3e e3 c4 de be
       -0.49513674 0.15511678 0.3367986 -0.43509588
000040 ee 2c b0 3e 4f 37 9c 3e 4a d7 79 3e 5d 0a c5 be
       0.3440928 0.30510947 0.24398533 -0.3848447
000050 38 f6 b6 3e 50 91 b1 3d 9b d4 a1 3e 42 43 e3 3e
       0.35734725 0.08670294 0.31607518 0.4438725
000060 fc a3 b1 3e ee 86 8d be ab 9f 0f 3e 74 5f 13 3e
       0.34695423 -0.27642006 0.14025752 0.14391881
000070 a1 da 3e be 55 80 a6 be fc e3 fa bd 20 98 c2 be
       -0.18638088 -0.32519785 -0.12250516 -0.38006687
000080 8a 2c f0 3e 9a bb bb 3e f8 c8 c6 3c 31 55 d2 bc
       0.4690898 0.36666566 0.024265751 -0.025675388
000090 c1 3f cc 3e bd bc b1 be 4c 0f d9 be 03 25 d0 3e
       0.3989239 -0.34714308 -0.42394483 0.40653238
0000a0 e4 18 f2 3d 7c 5a 26 3c ee c3 95 be 52 31 f4 3d
       0.11821154 0.010153409 -0.29251045 0.119234696
0000b0 7f 37 9c be d3 eb 8e 3d 22 20 b2 be f5 ad ac 3e
       -0.3051109 0.06978574 -0.3479014 0.3372647
0000c0 be c7 bf be 6f 48 ef 3d ea ba 9a be 09 4d 13 be
       -0.3745708 0.116837375 -0.3022073 -0.14384855
0000d0 ee 4a cf be 81 44 5c 3e 73 56 56 be de ef a4 3e
       -0.40486854 0.21510507 -0.20931415 0.32214254
0000e0 c4 b2 fc be 42 24 01 3e 66 a8 27 be b2 46 3f 3d
       -0.49355137 0.12611488 -0.16372833 0.04669828
0000f0 fa b9 56 3e 06 db 02 3e 85 b5 6c bd 45 79 8d 3d
       0.20969382 0.12778863 -0.057790298 0.06907896
000100 1a 65 2e bd 24 fd cf be 42 21 a3 3e f8 d7 4f 3e
       -0.042576887 -0.40622818 0.3186131 0.2029723
000110 1a 71 80 3e 54 45 50 bd a0 1f c3 be 62 47 8a 3d
       0.2508629 -0.050847366 -0.38110065 0.067518964
000120 b8 47 f6 be 71 72 f2 be cd 79 1b be cb da 8b 3d
       -0.48101592 -0.47352937 -0.15183182 0.06828841
000130 4b 7a b5 3d d3 de 8e bd eb a4 16 3b c8 49 17 3c
       0.08861216 -0.06976094 0.0022986482 0.009233899
000140 89 1d eb bc 57 79 c4 3e 37 3e 56 be 80 59 65 3e
       -0.028700607 0.38373825 -0.2092217 0.22397423
000150 0e 07 2c be be 6e 06 3e 1a 7e 47 be b6 48 fa 3e
       -0.16799566 0.13128182 -0.19481698 0.488836
000160 ee 06 bd be b1 81 fd 3d 2b 3e 48 be ec 07 94 be
       -0.3691935 0.12378252 -0.19554965 -0.28912294
000170 81 ae ae 3d 6d 30 a0 be 27 a9 c4 be 79 af c9 3c
       0.08529378 -0.31286946 -0.38410303 0.024619805
000180 ff 6f 92 be f4 d4 ac 3e 78 b3 a0 be df 37 47 be
       -0.2860107 0.3375622 -0.31386924 -0.19454907
000190 82 de c6 bd 48 93 e7 3e dd 25 a0 3e 7d 53 f4 3e
       -0.09710409 0.45229554 0.31278887 0.47719947
0001a0 67 ea 5f bd b0 f1 e2 3e ab 27 ee be 2e f2 af be
       -0.054666903 0.44325018 -0.4651464 -0.34364456
0001b0 ef b3 d5 3e fd 8a c0 be 74 44 a4 3e 28 23 81 be
       0.4173884 -0.3760604 0.32083476 -0.25222135
0001c0 dc 53 c4 be b9 21 51 be 27 4d a0 3e c8 44 bc be
       -0.3834523 -0.2042302 0.31308863 -0.36771226
0001d0 f2 45 00 bf 5c 8c 57 be 0e 67 68 be 8d 6a 59 3d
       -0.5010673 -0.21049637 -0.22695562 0.05308013
0001e0 ca 63 c9 3c e0 e3 97 bd 4b af 28 3e 03 c9 9b bd
       0.024583716 -0.074165106 0.16473119 -0.07606699
0001f0 50 62 ac 3e 35 4b 9f be a0 c2 de 3d 32 64 2d 3e
       0.33668756 -0.31112066 0.108769655 0.16932753
000200 c1 7d ff 3e 7f c2 f4 be 56 5f 9d 3e cd e5 e4 3d
       0.4990063 -0.4780464 0.30736798 0.111766435
000210 fc 8a bc 3e c3 b8 41 3e 0d 6b b0 3e 9f 80 de 3d
       0.36824787 0.18918137 0.34456673 0.10864376
000220 b3 90 eb 3e 19 ad a6 bd af c1 cf be 63 48 35 3d
       0.46008834 -0.081384845 -0.40577456 0.044258486
000230 c3 8a 23 3e 4a c8 e2 be 93 aa cf 3e ed 55 b4 be
       0.15970902 -0.44293433 0.40559825 -0.35221806
000240 ee 62 2a bd d2 4d 12 3e a8 d2 31 be f6 e6 a1 be
       -0.041598253 0.14287499 -0.17365515 -0.31621522
000250 15 22 38 be e6 bc 10 be 53 b9 0b 3e 57 75 0b 3d
       -0.17981751 -0.14134559 0.13644914 0.03404745
000260 4b 35 d7 be 2f 23 a7 3e 81 5e 4e be 05 b7 47 bd
       -0.42032847 0.3264403 -0.20153238 -0.048758525
000270 ee 46 b5 be 48 7c c4 3e 68 08 51 3d 77 de 02 bf
       -0.35405678 0.3837607 0.051033407 -0.51120704
000280 10 2c a0 3e af b1 ae be 3f e8 05 bd 56 59 6b be
       0.31283617 -0.34119937 -0.03269219 -0.22983298
000290 fc 01 14 3e 5c 07 eb 3d 07 68 6a 3e 28 f7 b3 be
       0.14453882 0.11476013 0.22891246 -0.35149503
0002a0 8e bb 81 be 5d f3 fc 3e b0 a9 83 be a9 38 05 bf
       -0.25338405 0.4940442 -0.257154 -0.5203958
0002b0 ca 92 c6 be 07 40 07 3e 7e 17 fd be 6a 13 35 3e
       -0.38783866 0.13208018 -0.49431986 0.17683187
0002c0 33 39 4b be 73 80 71 bd 28 2b 69 3d 9e 83 95 bd
       -0.19846039 -0.05896039 0.056925923 -0.073004946
0002d0 11 43 11 3d e1 47 11 3e c8 56 c5 3d 32 7a c0 be
       0.03546435 0.14187576 0.09635693 -0.37593228
0002e0 39 aa 08 3e 29 4a c1 be f7 b5 89 be a3 81 cc 3e
       0.13346185 -0.37751892 -0.2689664 0.39942655
0002f0 73 e4 d7 3e e0 fa af 3c ef 55 ea 3e 5c 8e 85 3e
       0.4216648 0.021481931 0.45768687 0.26085174
000300 91 59 f2 be 35 70 c4 be 38 a4 e3 3d b5 10 be be
       -0.4733396 -0.38366857 0.111153066 -0.3712212
000310 57 b2 3e bd ee c7 86 3e 34 a4 42 bd 4d 23 87 3d
       -0.046556797 0.2632441 -0.047519878 0.0659853
000320 b3 be bd be ad 34 d6 3e ce 9c cd be 4c 64 e8 be
       -0.37059554 0.41837063 -0.40158695 -0.4538902
000330 08 73 f7 be a3 69 57 be d3 a4 be 3d c2 25 35 3e
       -0.4832995 -0.21036391 0.093087815 0.17690185
000340 2d c2 de be 85 4a 9c 3e 9c 53 83 be 58 90 bc be
       -0.4350752 0.30525604 -0.25649726 -0.36828876
000350 d0 02 96 3e 65 6e 98 3d 64 b1 91 be f2 51 b9 3e
       0.2929902 0.07442931 -0.2845565 0.36195332
000360 4c 50 05 3f 4e 18 d8 be 3d 83 a8 3e 98 21 ee bd
       0.5207565 -0.42206043 0.32912627 -0.11627501
000370 a2 06 cb 3e 35 12 23 be 79 f9 59 3d 13 15 5f bc
       0.39653498 -0.15924914 0.05321643 -0.013615864
000380 87 64 82 3e 84 3d f6 be fa ab 1d 3e df e8 a3 3d
       0.2546732 -0.48093808 0.15397635 0.08003401
000390 cc ce a5 be b6 e7 bc 3e f1 14 25 be 08 cb 61 3e
       -0.32384336 0.3689553 -0.1612127 0.22050107
0003a0 16 9f 89 be 84 74 40 be fe 28 7a 3e 8e fc ca 3e
       -0.26879185 -0.18794447 0.244297 0.3964581
0003b0 70 d2 5d 3e 9b ad aa 3e 97 95 86 3e 92 81 d3 3c
       0.21662307 0.33335575 0.26286003 0.02581862
0003c0 af fe b3 3e bd 37 5a 3e 8d b1 ec bd ee fb 01 3f
       0.35155246 0.21310325 -0.115573026 0.5077504
0003d0 44 ad dd 3e 77 92 c8 be 57 cf f3 3d 0f 27 31 be
       0.43296254 -0.39174244 0.11904781 -0.17300056
0003e0 0b c6 ac 3e c6 b3 06 3d c6 a8 bf 3e 93 ac 9c 3d
       0.33744845 0.03288629 0.3743345 0.076501034
0003f0 91 6e ac 3e ce 29 55 be f0 36 e8 3d d3 62 81 3d
       0.33678105 -0.20816728 0.113386035 0.06317677

fc2.weight f4 [256, 256]
000000 10 f6 01 3d 4c 3a d0 bc 68 39 7c bd d8 01 b1 bc
       0.031728804 -0.025418423 -0.061578184 -0.021607324
000010 94 a9 bd bc 60 b0 b1 3c b4 c7 0c bd ce 7f 62 3d
       -0.02315215 0.021690547 -0.03437014 0.055297665
000020 b0 5a 3f 3d 40 d4 82 3c 78 03 4e bd 58 f1 5a bd
       0.046717346 0.01597035 -0.050296277 -0.05345282
000030 7c 6c 03 3d 82 c8 5d 3d 08 3e 77 3c 88 d7 01 3d
       0.03208588 0.054146297 0.015090473 0.031699687
000040 98 10 e2 bc 5c d8 5d bd 66 c4 69 bd 2a 21 0e bd
       -0.027595803 -0.054161415 -0.057072066 -0.034699596
000050 90 8f df bb ac 70 96 bc fc df d9 bc c8 6d 19 bd
       -0.006822534 -0.018364273 -0.026596062 -0.03745821
000060 50 14 eb bb e6 55 3c bd c4 f5 1a bd 58 11 31 bc
       -0.0071740523 -0.045980357 -0.037832037 -0.010807358
000070 c0 27 eb bb f0 d6 66 bd 32 b7 1f bd 38 c3 7b 3c
       -0.0071763694 -0.056357324 -0.038993068 0.015366368
000080 74 8a ff 3c f0 43 d0 bc e6 03 5e 3d a4 6e 09 bd
       0.03119395 -0.02542302 0.054202937 -0.03355278
000090 44 64 ff bc 40 2f c4 3c ba c6 7c bd 06 98 0a bd
       -0.03117574 0.023948312 -0.061712958 -0.033836387
0000a0 00 fc 1a 3d e0 65 6c bc 7c 9c eb bc ea 98 23 3d
       0.037837982 -0.014428586 -0.028761141 0.039940752
0000b0 80 be 3b bb 98 2d 1b bd 84 72 44 bd 88 19 08 3c
       -0.0028647482 -0.03788528 -0.047960773 0.008306868
0000c0 de 11 5e bd 8c c7 3e bd ec e0 a8 3c a4 b4 39 bd
       -0.05421626 -0.04657702 0.020615064 -0.045338288
0000d0 e0 bc 1e bb dc 31 ee bc 48 38 7b 3d f0 db c4 bb
       -0.0024221465 -0.02907651 0.06133297 -0.006007664
0000e0 44 36 c9 3c 7e 3d 5a bd 94 a2 9d bc c8 d9 ec bc
       0.024562009 -0.0532813 -0.019242562 -0.02891244
0000f0 f2 57 14 3d ac b0 22 3d 74 32 6b bd 30 61 e5 bc
       0.036216684 0.03971927 -0.057421163 -0.028000444
000100 0e 52 10 3d 64 05 82 3c a2 9d 5c bd c4 2a ba bc
       0.035234503 0.015871711 -0.053861268 -0.02272547
000110 60 ff 43 bb 66 1c 74 3d 76 d5 21 bd 88 f5 78 3c
       -0.0029906854 0.059597395 -0.039510213 0.015195258
000120 50 d9 71 3c 28 c2 2a bd c0 59 dc bb d0 64 86 3b
       0.014761284 -0.041689068 -0.006724566 0.0041013733
000130 e0 59 51 3d f8 67 97 bc ec 82 9f bc 80 c3 c1 3c
       0.051111102 -0.018482193 -0.019471608 0.023652792
000140 a4 48 29 3d da 9e 3f 3d 9a c0 65 3d 90 3b 8f 3b
       0.04132904 0.046782352 0.056091882 0.004371114
000150 84 da 71 bd 7c 38 71 bd d8 e8 da 3c 90 9d 81 bb
       -0.059046283 -0.05889176 0.026722357 -0.0039555505
000160 88 8c 5c bd 70 e6 6f bd 5c e7 06 3d 0c d3 45 3d
       -0.05384496 -0.05856937 0.032935485 0.048296973
000170 30 22 aa 3c 64 be f9 3c 8a f2 75 3d f6 79 4d 3d
       0.020768255 0.030486293 0.060045756 0.05016514
000180 28 99 3e 3d e4 48 ce bc 3c 7b 16 3d 1c dd 36 bd
       0.04653278 -0.025181241 0.03673862 -0.04464446
000190 30 4d d9 3c ac 15 6b 3d 08 c7 a9 3c dc 3b 61 3d
       0.026526064 0.057393715 0.020724788 0.054988727
0001a0 0a e8 76 bd c4 6b 70 3d 56 a1 7d bd ba 43 66 bd
       -0.060279883 0.058696523 -0.06192144 -0.056216933
0001b0 e6 f5 62 bd 12 9b 42 3d 78 4e d4 3c f8 13 b3 3c
       -0.05541029 0.047511168 0.025916323 0.021860108
0001c0 44 aa 23 bd 3c 07 3f 3d 54 0f 51 3d 52 b5 59 bd
       -0.0399573 0.04663776 0.05104001 -0.053151436
0001d0 00 68 c9 b8 c4 ea ca bc 5e d2 16 bd dc 58 13 bd
       -9.6037984e-05 -0.024770148 -0.036821716 -0.035973415
0001e0 3c 60 0a 3d 04 94 74 bd 94 e7 d7 bc a2 21 10 bd
       0.033783183 -0.05971147 -0.026355542 -0.035188325
0001f0 90 db f4 bc 66 fc 0f bd 52 ba 78 3d f8 a1 c8 3c
       -0.029889852 -0.035152815 0.060724564 0.024491295
000200 d8 e2 09 3c 70 f0 82 bc ec 9f 60 bd 84 80 a9 3c
       0.0084159 -0.01598379 -0.054840013 0.020691164
000210 cc 41 56 3d 54 04 71 3d 80 42 49 bd f8 71 ac 3c
       0.052308843 0.05884202 -0.049135685 0.021050438
000220 62 3c 16 3d 0c 04 40 bd 94 2f 05 bd 18 e0 4a bc
       0.03667868 -0.04687886 -0.032516077 -0.01238253
000230 d4 4a be bc c2 27 14 3d 2c f3 12 bd 20 c3 79 3b
       -0.02322904 0.03617073 -0.035876438 0.0038110688
000240 dc 21 8a 3c 7c c6 29 3d 6c 77 b1 bc 60 25 04 bd
       0.016861849 0.041449055 -0.02166339 -0.032262206
000250 50 a2 07 3d f6 43 5f bd ae 7e 6e 3d 58 0c 0a bc
       0.033113778 -0.054508172 0.05822628 -0.008425795
000260 80 39 e4 bc 40 5e 9a ba 2a d9 7e 3d 7a f7 26 3d
       -0.02785945 -0.0011777356 0.062218823 0.040763356
000270 b4 10 56 3d 58 77 60 3c dc fa 70 bd ee 4e 7a 3d
       0.052262023 0.013700329 -0.05883299 0.06111043
000280 6a 8b 77 bd a0 41 21 bd 70 2a 45 bd 1e 9d 0f 3d
       -0.06043569 -0.039369226 -0.048136175 0.035061948
000290 14 d7 62 3d 30 9b 16 3d d8 c8 22 3c fa ca 47 3d
       0.055380896 0.036769092 0.00993558 0.048777558
0002a0 54 37 1e 3d b4 90 54 bd 9c ce 1c bd d8 68 46 3c
       0.038626984 -0.051895812 -0.038282976 0.012109958
0002b0 58 d0 12 bc 2c b4 19 3d c0 76 89 3b 20 58 7a 3b
       -0.008960806 0.03752534 0.0041950643 0.00381995
0002c0 00 0f f0 3b 86 56 66 bd d0 cb 0a bd 26 5d 4e bd
       0.007326007 -0.05623486 -0.033885777 -0.050381802
0002d0 3c 51 3f bd b8 99 b1 bc b0 87 6d bc 3e c1 70 3d
       -0.04670833 -0.021679744 -0.014497682 0.05877804
0002e0 f2 b8 1b bd ea 64 39 bd 70 34 83 3b e0 d2 ee 3b
       -0.038018174 -0.045262255 0.004004054 0.007288322
0002f0 8c 24 93 3c 58 ef 7f bc 10 d1 dc bc 0e d2 14 bd
       0.017961763 -0.015621029 -0.026955158 -0.036333136
000300 98 66 70 3c 7c 4b fe bc ac 5d 1f 3d 98 52 72 3d
       0.014672898 -0.031041853 0.03890769 0.0591608
000310 58 9d e3 3c 18 4c 38 3c f2 08 68 bd 8e e9 59 bd
       0.027784988 0.011248611 -0.056649156 -0.05320125
000320 d8 31 49 bd d0 cf 92 bc 88 3c 4f bd 70 37 fd 3c
       -0.0491198 -0.017921358 -0.050594836 0.030910224
000330 d6 03 67 bd 20 6b 5d 3b 40 e8 4d 3b f8 12 bb bc
       -0.056400143 0.0033785775 0.003141895 -0.022836193
000340 80 b7 88 ba 52 5d 72 3d a0 e2 15 bc 0c 96 4d bd
       -0.0010430664 0.05917103 -0.00914827 -0.050191924
000350 ce 78 07 bd 58 10 95 bc 5a 27 36 bd 88 06 0e 3c
       -0.033074193 -0.01819627 -0.044471122 0.008668549
000360 40 88 f2 3a 58 83 e4 3c b0 79 a5 bc 26 3f 52 3d
       0.001850374 0.02789466 -0.020199627 0.051329754
000370 7a cc 38 3d 70 73 76 bd 6c 2b d8 bc d8 51 ce 3c
       0.04511688 -0.060168684 -0.026387893 0.02518551
000380 78 0e 5d bc a0 01 48 3b c0 d3 d0 3b ec 3d 5b bd
       -0.013492219 0.0030518547 0.006372899 -0.05352585
000390 f0 78 eb bc 44 70 85 3c 22 ec 64 3d f2 17 5e bd
       -0.02874419 0.016288884 0.055889256 -0.054222055
0003a0 d8 c1 5f bd 3e c1 45 3d d4 87 da bc 92 a8 4f bd
       -0.054628223 0.048279993 -0.026676096 -0.05069787
0003b0 b6 0c 31 bd 78 ed 26 bc e4 67 62 3d 74 b2 36 3d
       -0.043225013 -0.010188453 0.05527486 0.04460378
0003c0 9a 40 5a bd 0c b9 ab 3c 5c 71 46 3d ba 96 5b 3d
       -0.053284265 0.02096226 0.04844795 0.05361054
0003d0 ac ad 7c bd bc 5a c2 bc 7c f9 36 3d 8a 51 17 3d
       -0.061689064 -0.023724906 0.04467152 0.036942996
0003e0 84 29 81 3c e4 f9 c0 bc ea a1 38 bd 60 92 c2 bb
       0.015766867 -0.023556657 -0.04507629 -0.0059378594
0003f0 fc be d4 3c 64 9e 90 3c 9e 70 33 3d 04 9b 53 3d
       0.025969975 0.017653652 0.043808572 0.051661506

fc2.bias f4 [256]
000000 ac 5e 25 bd c4 ef 7e bd ce 29 11 3c 44 a6 88 3d
       -0.04037349 -0.062240377 0.008860065 0.06672338
000010 64 b2 6f bd 71 df ce 3c e5 5f dd 3c 09 e4 73 3c
       -0.058519736 0.02525303 0.027023265 0.014885911
000020 36 76 cf bb 5e 01 18 bd 71 8a 31 bd c7 61 81 3c
       -0.0063312305 -0.03711068 -0.04334492 0.015793694
000030 f0 8b 8d bb a1 40 a5 3c ca 74 3e bd 65 23 17 bd
       -0.0043196604 0.020172419 -0.046498097 -0.03689899
000040 01 cf 68 bc 9b 87 1e bc a5 78 fe 3c 9a 25 e8 bc
       -0.01420951 -0.009675886 0.031063387 -0.028338242
000050 ba 36 6f 3d 8f 85 ad bc b5 f7 50 bc 55 32 7b bc
       0.0584018 -0.02118185 -0.01275437 -0.015331824
000060 27 b6 17 3d 70 e4 47 3d 3b 40 5e bd 2f 51 8c bd
       0.03703895 0.04880184 -0.054260474 -0.06851422
000070 2b 21 00 ba 4a 4f 78 3d 54 ae 7a bd b4 99 fa 3b
       -0.0004887755 0.06062249 -0.06120141 0.0076477174
000080 6d 36 28 3d 8e 1d 06 bb 46 a4 c1 bc 09 1f 2d bd
       0.04106753 -0.0020464393 -0.023637902 -0.042265926
000090 72 e5 67 3c 6e 95 6a bd f9 b7 0a 3d 96 a2 62 3d
       0.014153825 -0.057271414 0.033866856 0.055330835
0000a0 4d c1 3f bd ad aa 41 3d 1a 14 b8 bc f0 cd 39 bc
       -0.046815205 0.04728191 -0.022470523 -0.011340603
0000b0 b1 92 29 bc 04 cb 16 bc 96 a0 13 3d 40 b6 2c bd
       -0.010349915 -0.009203676 0.03604182 -0.042165995
0000c0 2b b2 4d 3d b5 e1 a1 bc 1a 0c 85 bb 68 a4 35 3d
       0.050218742 -0.019760946 -0.0040602805 0.044346243
0000d0 63 03 b4 bc 9d ef c0 bb 2a 54 90 3d 38 9c 96 bd
       -0.021974271 -0.005887939 0.07047303 -0.07354015
0000e0 58 4e 59 3d 30 c3 02 3c 7d 3b c5 3c 7a 79 f2 3a
       0.05305323 0.007981107 0.024076218 0.0018499338
0000f0 83 e7 c1 3c 0d 6a 96 bc e1 cf 24 3d 9d 67 d0 bc
       0.023669964 -0.018361116 0.04023731 -0.025440032
000100 2a bf 31 bd f6 a5 41 3d b3 a2 1f 3d 08 d4 52 3d
       -0.0433952 0.047277413 0.03897352 0.05147174
000110 61 81 5c bd f4 f0 18 bd 26 35 a9 3c 96 8f 5b 3d
       -0.053834323 -0.037339166 0.020655226 0.05360373
000120 b7 c6 89 3c 57 6b 2b bd 7d 43 3a bd 25 e3 a9 3d
       0.016818387 -0.041850414 -0.045474518 0.082952775
000130 8c 12 5a 3d 62 fa ca 3c d3 66 25 3d 76 76 4c 3d
       0.053240344 0.024777595 0.040381264 0.04991766
000140 fb 5d 6a bd 71 b2 2c 3d 48 c6 88 3b b7 32 84 bd
       -0.057218533 0.042162362 0.0041740276 -0.064549856
000150 d1 7f 23 3d 89 01 bb bc 6a 2f ae 3d 1f 9b 83 bd
       0.039916817 -0.02282788 0.08505137 -0.064260714
000160 a2 b1 00 bb a8 58 43 3d 0a 09 19 3d 90 86 83 3c
       -0.0019637127 0.04769197 0.037362136 0.016055375
000170 1e a2 41 3d 82 2e b8 3c 97 0e da bc bd 1a 7b bd
       0.047273748 0.022483114 -0.026618285 -0.061304796
000180 15 a6 f4 bc f6 cf 76 3d 92 6b 55 3c 8d 73 2d bc
       -0.02986435 0.06025692 0.013026135 -0.0105866315
000190 47 83 34 bd 97 70 94 bb a4 3e 6e 3d 50 8a 7d bc
       -0.04407051 -0.0045300233 0.058165208 -0.015474871
0001a0 7b 8b 78 3d b8 08 c8 bc 9e b6 0f bd de 1b 4a bd
       0.060679894 -0.02441822 -0.035086267 -0.049342982
0001b0 8d 0c 08 bd d2 c3 18 bd d5 ea 4a ba a0 13 c6 3d
       -0.033215094 -0.037296124 -0.0007740681 0.09671712
0001c0 4e a4 02 bc ec ce 32 bd 9f ad 52 bd d8 9d 6d bd
       -0.007973744 -0.043654367 -0.05143511 -0.05801186
0001d0 98 90 21 bd e2 5a 0b 3d 62 68 84 bd 38 d7 99 3c
       -0.039444536 0.03402222 -0.06465222 0.018779382
0001e0 4f 58 8d bd aa 8e ad 3c 27 ca 6f bc 65 c9 66 3b
       -0.06901609 0.021186192 -0.014635599 0.0035215255
0001f0 e6 1c 15 3d 2a 1a d1 3c 2b 72 90 bc 7a 07 33 3d
       0.036404513 0.025525171 -0.017632565 0.043708302
000200 36 0c 22 bd e5 93 9f 3d e8 ad 56 bd 60 6c 22 bd
       -0.039562427 0.077918805 -0.052411944 -0.039654136
000210 6a f3 4f bd 50 56 4f 3d 61 e6 79 bc e7 28 22 3d
       -0.050769247 0.050619423 -0.0152526805 0.03958979
000220 75 25 80 3d fe a6 a7 3d 60 74 2b 3d cd 8a 36 3d
       0.06257144 0.08186148 0.04185903 0.044565964
000230 c8 a5 fd 3c 01 67 49 3d fb 8d 67 bd ef b0 38 3d
       0.03096284 0.049170498 -0.056531888 0.045090612
000240 34 e9 8a 3d ac 78 ce 3b 29 3b 3c 3c e0 34 3e 3d
       0.06782761 0.0063010063 0.011488714 0.046437144
000250 11 c0 41 bd ea 5d 1a 3d 2d 87 67 3d 50 1a 9f bc
       -0.04730231 0.03768722 0.056525398 -0.019421726
000260 a0 4b 8a 3d 84 70 42 bb 42 14 37 bd 2f f2 71 3d
       0.067527056 -0.0029669115 -0.044697054 0.059068855
000270 59 25 b2 bc 26 24 54 3d cf b3 0d 3d 08 f6 da bc
       -0.021746324 0.051792286 0.034595307 -0.026728645
000280 6d 2b 69 3c 31 21 95 bc 27 de 9f bc 90 8d 61 3c
       0.014231545 -0.018204303 -0.01951511 0.013766661
000290 0c c3 2e bd 6c 2c 29 3d 48 3a 02 bd c5 8b b9 bb
       -0.04266648 0.04130213 -0.031793863 -0.005662414
0002a0 61 99 ac 3c 05 6b 75 3d d1 02 40 bd 44 6e 8c 3d
       0.02106923 0.059916515 -0.046877686 0.06856969
0002b0 92 f6 4d bd 03 31 85 3b c0 9f db bc 9f 8a ca bc
       -0.050283976 0.0040646805 -0.026809573 -0.024724303
0002c0 2f 57 44 bd 67 2b e2 3c 40 e3 cd 3d b7 87 2f bb
       -0.047934707 0.027608586 0.1005311 -0.0026783773
0002d0 22 62 59 3d 91 e6 a4 3b 2a 24 3b 3d 21 c2 84 bc
       0.053072102 0.0050323685 0.045688786 -0.01620585
0002e0 1c e3 59 bd 46 3b 2a 3d 0b 6c 80 bd f4 04 44 3b
       -0.053195104 0.041560434 -0.062706076 0.002991018
0002f0 04 c5 5a 3d 00 11 18 bb b5 91 8d bc 31 23 15 3d
       0.053410545 -0.0023203492 -0.017281393 0.036410514
000300 8f e3 68 bd 35 fe 2c bd c0 1b 84 bc ee 97 4a bd
       -0.05685764 -0.04223462 -0.016126513 -0.049461298
000310 40 19 03 3d 88 1b 13 bc ec 49 82 bd c0 17 cd bc
       0.032006502 -0.008978732 -0.06361756 -0.025035739
000320 a5 96 33 3d c5 c6 0d 3c ef 62 9d 3d 12 28 96 bc
       0.043844838 0.008653347 0.07684886 -0.018329654
000330 0a c9 96 3d c8 47 10 bd 1b 15 61 3d ae 22 93 3d
       0.07362564 -0.035224706 0.05495177 0.07184349
000340 29 01 87 3d a0 e4 66 3d 59 89 43 bd 41 a3 ed 3c
       0.06592018 0.056370378 -0.047738407 0.02900851
000350 77 f2 b1 3c 71 55 06 3b 73 96 9a 3c ca 93 25 bd
       0.021722062 0.0020497704 0.018870568 -0.040424146
000360 b6 99 86 3d cc 14 82 bd ef 9f 15 bc be e1 94 3d
       0.06572287 -0.06351623 -0.009132369 0.072696194
000370 76 d8 20 bd 54 78 8d bd 57 ad fc bc 26 d3 40 3d
       -0.039268933 -0.069077164 -0.030844374 0.047076367
000380 f4 da cb 3b 65 34 34 3c 2a 71 2f bd 8e ed de 3c
       0.0062211696 0.01099882 -0.04283253 0.027212884
000390 fe 2b 1e 3c 12 5f da bb 4f b8 45 3d 2a a1 fb bb
       0.009654043 -0.0066641653 0.048271473 -0.0076791244
0003a0 1a e3 1c bd b9 64 67 3b 35 fb 4e 3d 2d 4c af 3c
       -0.03830252 0.0035307838 0.05053254 0.021398628
0003b0 ee 5d 57 bc 5e 83 87 bd 2a 3d 5e bd 37 e6 c1 bc
       -0.013144953 -0.06616853 -0.05425755 -0.023669345
0003c0 20 59 49 bd c2 a1 96 3c 35 3f b8 bc 75 65 11 3c
       -0.04915726 0.018387679 -0.022491077 0.008874287
0003d0 a1 49 8c bd cc 9c 8a bd 1c fd ac 3b 9d 9b 22 3d
       -0.06849981 -0.06768188 0.0052791964 0.039699186
0003e0 bb ec 0c bd b6 70 7d bd 43 70 e6 bb 59 c2 fb 3c
       -0.03440545 -0.061875068 -0.0070324256 0.03073232
0003f0 de b0 38 3d b3 26 4a bd 3a 62 34 3d 76 29 5d 3c
       0.04509055 -0.049353313 0.04403899 0.013498655

fc3.weight f4 [256, 256]
000000 98 98 4a bc 36 2a d9 3c bc 95 47 3c 53 59 1d 3d
       -0.012365483 0.026509386 0.012181696 0.038415264
000010 60 63 19 bd 9b e5 1f bd b2 4a 4b 3d fb ff d8 bc
       -0.037448287 -0.03903733 0.049631782 -0.026489248
000020 cf d2 56 3d 33 5a 48 3d cd 87 43 bd ff 15 fa 3c
       0.052447136 0.048914146 -0.04773693 0.030528067
000030 b2 c7 24 bd 0d db fe bc 36 ed e7 bc e9 52 3e bc
       -0.040229507 -0.03111031 -0.028311353 -0.011616447
000040 02 c2 4b 3c c1 cd 8f bd 3f f1 0b bd f7 a4 83 3c
       0.012436392 -0.07021666 -0.034165617 0.016069872
000050 b8 c3 07 3d e2 ca 71 3d 01 4d 52 bb 8f 59 e4 3c
       0.033145636 0.059031375 -0.0032089355 0.027874736
000060 bd 50 38 bc 7f 99 74 bd ae 64 1f 3d 43 dc 5f 3c
       -0.011249718 -0.059716698 0.038914375 0.013663354
000070 de 21 82 3b b2 c0 c6 ba ed 4f de bc e7 17 9d 3c
       0.0039713224 -0.0015163629 -0.027137721 0.019176437
000080 fe a6 38 3c 99 e3 12 bc 64 96 ae bc e1 a9 60 3d
       0.011270283 -0.008965396 -0.021311946 0.05484951
000090 59 92 1c 3b 6a 7d 4f bd bc 47 02 3c 92 ff 8d bc
       0.002389094 -0.050656714 0.007951673 -0.01733378
0000a0 34 02 04 3d 29 60 38 bd e1 43 8e bb 36 62 52 bd
       0.032228664 -0.04501358 -0.004341588 -0.051363192
0000b0 3d cf 53 3d 19 ba 47 3d 4c 89 11 3d db e0 57 3d
       0.05171131 0.04876146 0.035531327 0.052704673
0000c0 15 83 f1 3c 43 4e 42 bd db 66 4c 3c 2c 34 4d bd
       0.02948145 -0.047437917 0.0124756945 -0.050098583
0000d0 70 35 89 3b 17 6d 10 bd dd 07 c1 3c 32 a1 df 3c
       0.0041872784 -0.035260286 0.02356332 0.027298544
0000e0 46 f3 71 bd 0c 67 1e 3d d8 5a 44 3d dd 97 81 3d
       -0.059069894 0.038672492 0.047938198 0.06327794
0000f0 b3 cf 90 3c d7 d5 aa 3b 27 d8 c1 3c 28 09 0d 3d
       0.017677164 0.00521348 0.02366264 0.03443256
000100 90 80 25 3d 40 37 f4 ba ba 72 f4 bb a7 0a 94 bc
       0.04040581 -0.0018632188 -0.0074599655 -0.018071486
000110 0d c3 84 bd 1d 24 ef 3b 89 a2 74 3c b3 7f 4b 3d
       -0.064825155 0.007298006 0.0149313295 0.04968233
000120 81 5f c1 bc 01 f6 47 3d 46 cf 07 3d c6 ba 56 3d
       -0.02360511 0.048818592 0.033156656 0.052424215
000130 5a 0a c5 3b 9a e0 c7 bc ae b1 33 3c ae 1f 6d bd
       0.006013197 -0.02439909 0.010967655 -0.05789154
000140 23 47 38 3d 77 1d 17 3d 20 c6 ec bb 55 cf 35 3d
       0.044989716 0.036893334 -0.007225767 0.04438718
000150 92 c0 dc bc 4a 98 19 3c 41 8a 41 3d b5 d3 62 bd
       -0.026947293 0.009374687 0.04725099 -0.05537768
000160 94 64 5c bd 04 8e 94 bd 6b 0b d6 3c b5 ea f8 3b
       -0.053806856 -0.0725365 0.026128491 0.0075963386
000170 7b a4 59 3c 4d 8c 83 bd 21 ad 55 bd ca 17 cc bc
       0.013283844 -0.064232446 -0.05216706 -0.024913687
000180 e1 43 bb 3c 8b b2 5d bc 5d e1 97 bc b0 5e 5b bd
       0.022859516 -0.0135313375 -0.018540079 -0.053557098
000190 21 25 c2 3b 51 12 51 bd cf 1c 63 bd 6e ac 36 bd
       0.0059248363 -0.05104286 -0.055447396 -0.044598036
0001a0 03 73 00 3d 74 e3 f5 bc 1e f2 08 3d 91 e9 09 3d
       0.031359684 -0.030015685 0.033434026 0.033670012
0001b0 6d 81 06 bc 9e 6f 10 3d bc ed 26 bd 8f dc c8 ba
       -0.008209568 0.035262696 -0.040754065 -0.0015324521
0001c0 1d 80 ff 3c 81 da 20 3d 45 7b ad bc 4b 42 b8 bc
       0.031189019 0.03927088 -0.021176944 -0.022492548
0001d0 ce a3 3f 3c 93 8d 1e 3d 6c b6 db bb 8d 87 97 bc
       0.011696769 0.038709234 -0.006705096 -0.018497253
0001e0 b8 ca a9 3c 47 15 5a bd 6e 6d e2 3c 29 cf 76 bd
       0.020726547 -0.053242948 0.02764007 -0.060256157
0001f0 64 c8 5c 3d 12 60 c2 bd 20 04 45 3d 6f 4d 9d bc
       0.053902045 -0.0949098 0.048099637 -0.019201962
000200 b3 b3 fa bb a7 8b 20 3d b1 d0 52 bd 66 70 44 3d
       -0.0076508163 0.039195683 -0.051468555 0.047958754
000210 98 85 40 bd 76 10 6f bc e3 5d 44 3d f8 af ea bc
       -0.047002405 -0.014591327 0.0479411 -0.028648362
000220 5b 80 03 3d 5e bb 1c bd e9 b6 50 bd 98 cd 61 3c
       0.03210483 -0.038264625 -0.050955687 0.0137819275
000230 33 97 37 3d ac 1c 37 3d 43 9d 4e 3c 18 79 00 bc
       0.04482193 0.044705078 0.012610736 -0.007841371
000240 32 3e 0a 3d 82 a1 78 bd 2a be ee bc 74 39 39 3c
       0.03375072 -0.0607009 -0.029143412 0.011305202
000250 dd 17 12 bc 4d 11 8a bc d9 9e 08 3d f1 19 21 bb
       -0.008916822 -0.016853953 0.033354614 -0.0024582113
000260 60 84 fb bc 51 57 51 bd ea c4 ba 3b f1 9a f3 bc
       -0.03070277 -0.051108662 0.0056997435 -0.029736968
000270 ea b3 53 3d b8 f5 5a bd cf 1c 0d bd 14 47 06 3d
       0.05168525 -0.053456992 -0.034451302 0.03278263
000280 26 4e 84 bd 07 15 78 bd c1 a9 22 3d d2 5f 0c 3d
       -0.06460218 -0.06056693 0.03971267 0.03427107
000290 b2 f1 be 3b 8d a1 73 bc 30 4e cc 3c cc 4d 14 3c
       0.005827152 -0.01487006 0.024939626 0.009051751
0002a0 92 b6 59 3d ca 0b 3c bd ad 3e 68 bd a7 3a cb bc
       0.05315263 -0.04590968 -0.056700397 -0.024808241
0002b0 90 33 3f bd fc 8d 28 bd ef 4b 57 3c 3a 85 8b 3a
       -0.046680033 -0.04115103 0.013140663 0.0010644563
0002c0 46 c3 1f 3d 86 64 be 3c 21 2c 80 bd 93 ce b5 3a
       0.039004587 0.023241293 -0.06258417 0.0013870768
0002d0 7e 80 56 3b d4 53 92 bc 08 24 21 bd b4 17 89 bd
       0.0032730396 -0.017862238 -0.039341003 -0.06693974
0002e0 e6 35 33 bd 33 a2 41 3c 46 aa 4e bd 46 bc 5d bd
       -0.043752573 0.011818456 -0.050455354 -0.05413463
0002f0 f3 2a b9 bc d0 9f 6b bd 3a a0 1b 3d 2e 30 30 bc
       -0.022603488 -0.057525456 0.0379946 -0.010753674
000300 66 f9 07 3d 14 a7 c4 bc c0 cc ae ba 33 f8 b1 3c
       0.03319683 -0.02400545 -0.0013336167 0.021724796
000310 54 82 46 3d 7f 31 35 bd 59 e6 d0 bc ba 29 28 bd
       0.048464134 -0.044236656 -0.025500463 -0.04105542
000320 f4 f5 d5 bc cc 19 28 3d 9d 9f 3e bd 9c 21 5e bb
       -0.026118256 0.041040227 -0.046538938 -0.0033894544
000330 34 2a 5d 3d d8 3a c8 bc ed 4f 86 3d 82 c8 ff bb
       0.053995326 -0.024442121 0.065582134 -0.007805885
000340 5f a0 83 3c 1a ca 1c 3b aa 17 54 3d 2e 79 03 3d
       0.016067682 0.0023924173 0.05178038 0.032097988
000350 a8 31 26 bd 1a 93 32 bd b7 10 dd bc 28 1b ff 3c
       -0.0405747 -0.04359732 -0.02698551 0.031140879
000360 70 17 d8 bc cc 3e d9 bc 53 f2 50 3c d9 2b c4 37
       -0.026378363 -0.026519202 0.012753087 2.3385439e-05
000370 25 8e e7 bb 31 50 b3 3c f4 60 49 bd 67 9b d7 ba
       -0.0070665055 0.021888824 -0.049164727 -0.0016449512
000380 d3 50 df 3b 2d d4 9d bc 39 3e a7 3b bd ef 61 bc
       0.006815055 -0.019266212 0.005103853 -0.013790068
000390 82 22 23 bd 06 8e 32 bd 04 ac 37 3c d6 45 54 bc
       -0.03982783 -0.043592475 0.011210445 -0.012956103
0003a0 89 6a 20 3d 85 d5 f1 3c 09 5d 22 3d 83 87 2c 3d
       0.0391641 0.02952076 0.039639506 0.04212142
0003b0 ec f4 a4 bb 34 21 31 bc 4f 69 50 bc c0 89 21 3d
       -0.00503408 -0.010811139 -0.01272042 0.03943801
0003c0 b4 6f 0c bd 01 f0 15 3c 8b d6 13 bd 52 d0 71 bd
       -0.034286216 0.00915146 -0.036093276 -0.05903656
0003d0 b1 d6 8f 3c 40 95 fe bb e1 e7 1f bd b0 b1 5c bc
       0.017558428 -0.007769257 -0.039039496 -0.013470098
0003e0 fa ab 56 bd 13 12 57 bd a5 40 34 3d f0 52 34 3d
       -0.052410103 -0.05250747 0.044006962 0.044024408
0003f0 59 c7 e8 bc 8d 43 4a 3d 3e 05 61 3d ab d5 8a bc
       -0.028415369 0.049380828 0.05493664 -0.016947588

fc3.bias f4 [256]
000000 11 de 5d bd f9 36 68 bd d9 ac 3b bd 92 41 6f bd
       -0.054166857 -0.05669305 -0.045819137 -0.058412142
000010 4a da a4 3d e8 3f 7a bd b5 01 21 ba 08 21 db 3a
       0.08049448 -0.061096102 -0.0006141917 0.0016718218
000020 38 6c 2e 3d 17 79 83 3d e0 49 01 3d 65 e9 0d 3a
       0.042583674 0.064195804 0.031564593 0.00054135016
000030 38 6c e0 bb 48 3f 62 3c 06 5b 5a bd df e5 38 bd
       -0.006848838 0.013809033 -0.053309463 -0.045141097
000040 4f 0a 0e bc 53 92 4d bc df 6c 6e 3d 16 8f dd bc
       -0.00866945 -0.012547093 0.058209296 -0.027045768
000050 15 01 38 bb 49 80 7d 3d 7b c2 96 39 3a 72 ad bc
       -0.0028076817 0.06188992 0.0002875513 -0.021172632
000060 14 92 3e bd 3a 31 81 bd c5 d5 ae 3c fe 6e a4 3d
       -0.04652603 -0.06308217 0.021342168 0.080289826
000070 1d 2b a9 3d 76 4c 2f bd 65 c5 39 bd 90 aa 2b bc
       0.08260176 -0.04279753 -0.045354266 -0.010477677
000080 7d e6 0f bd 7c a4 b2 bc 51 bc 0e bb c1 02 69 bd
       -0.03513192 -0.021806948 -0.0021779726 -0.056887392
000090 8d 78 89 3d 97 c7 c1 bc 96 40 f6 bb 19 98 53 3c
       0.06712446 -0.023654742 -0.0075150235 0.012914681
0000a0 42 33 04 bd 20 96 1b 3d 30 45 ed 3c ed 88 76 bb
       -0.032275446 0.037984967 0.028963655 -0.0037618235
0000b0 e0 8a 14 bd da 24 6b bd 15 df 14 3d 08 ce 86 3c
       -0.036265254 -0.05740819 0.03634556 0.016455665
0000c0 4c 72 87 bd 84 c1 75 3c d7 a9 a2 3c a4 4e 49 3d
       -0.06613597 0.014999751 0.019856377 0.049147263
0000d0 8e 14 0b bd ce a0 13 3d 71 16 2b bd e5 b8 8b bc
       -0.03395515 0.036042027 -0.04176945 -0.017055938
0000e0 78 b2 4c bc 42 33 3a 3d 6b 99 5b bd 32 e5 22 3d
       -0.012493722 0.04545904 -0.053613108 0.03976936
0000f0 b6 61 54 3d ba 52 0d 3d 83 36 55 bd 64 8b 3f 3d
       0.051850997 0.034502722 -0.05205394 0.046763793
000100 10 5f 62 bb 47 f9 d9 3c 1d 78 91 3d 6a 5f ba 3c
       -0.0034541525 0.026608123 0.07102988 0.022750575
000110 28 b4 86 3c 4d 1b 22 3d ca c0 8e 3c e7 cf 02 bd
       0.016443327 0.039576817 0.017425913 -0.031936552
000120 1f 26 cb 3c a7 09 46 bc e4 8b 9d bc 9a 5e e5 bb
       0.024798451 -0.012087262 -0.019231744 -0.006999803
000130 19 9b 00 bd 94 13 56 bd cb 13 17 3c 7b f5 0d 3b
       -0.031397913 -0.052264765 0.009221028 0.002166121
000140 ea 12 54 bd 09 41 1c 3c bf 61 6a 3d fe 9f 37 bd
       -0.05177585 0.00953699 0.057222124 -0.044830315
000150 0e 6c 2f bb 95 6e 87 3d 7c 30 72 3d 93 4e af 3d
       -0.0026767286 0.06612889 0.05912827 0.08559909
000160 28 93 69 3d 22 15 31 3d bc 5b a0 bc ac f3 8d bd
       0.057025105 0.043233044 -0.019574992 -0.06931242
000170 73 97 10 bd a3 40 4e 3d 05 e0 3b 3d 24 4a 57 3d
       -0.035300683 0.05035461 0.04586794 0.05256094
000180 1f 1b 76 3d 45 6c 0e 3d 49 a1 1a 3d 18 93 c0 bb
       0.06008446 0.034771223 0.03775147 -0.00587691
000190 45 6a 85 3d 68 5d f0 bc a2 12 a0 3c 5a 9e 4c 3d
       0.0651441 -0.029341415 0.019540135 0.049955703
0001a0 fc d4 af 3b 39 a8 56 bd ba 4e b2 bb bf b0 08 3c
       0.005365966 -0.052406523 -0.005441514 0.008342921
0001b0 f8 50 44 3b 8d 52 69 3d 17 3c d5 bc b2 f3 19 3d
       0.0029955488 0.056963492 -0.02602963 0.03758592
0001c0 ad 5d 39 3d e8 20 a9 3c bc 5f 2f bb 1d eb 90 3c
       0.04525535 0.020645574 -0.0026759943 0.017690236
0001d0 26 9f d6 bc c2 e6 1c 3c fc 6a 89 3c bb f5 42 3d
       -0.026198935 0.009576501 0.016774647 0.047597628
0001e0 e3 9e f4 3c ce e7 91 3d 28 2b 0d bc 0b 71 49 3d
       0.02986092 0.07124291 -0.008616246 0.04918007
0001f0 1f f4 96 3c 97 9b 21 bc cc c4 e7 3c 39 89 5a 3d
       0.018426953 -0.009863756 0.028292082 0.053353522
000200 37 fa 6f bd 0f 74 2e 3d e1 d2 28 3d 27 f6 72 3d
       -0.058588233 0.04259115 0.041216735 0.05931678
000210 9d a3 b9 bc 95 00 80 3d 08 e4 1e bd aa 24 ba 3b
       -0.022661025 0.06250111 -0.038791686 0.00568064
000220 91 4e b5 bc 43 c1 42 3d 81 87 81 bd 8a fd 70 bd
       -0.02213219 0.04754759 -0.063246734 -0.058835544
000230 0f 4e 55 bd 52 0c f5 3c ad 00 6b bd dc b4 0b 3c
       -0.052076396 0.029913101 -0.05737369 0.008527007
000240 10 84 68 bd 01 a6 68 3d d9 f1 08 bc 41 7f 72 3d
       -0.05676657 0.05679894 -0.008358442 0.05920339
000250 c3 66 6f 3d 04 d7 25 3d 50 7b 38 3d 75 59 73 3d
       0.05844761 0.040488258 0.045039475 0.059411485
000260 7a 37 86 3d a7 fe e4 3c ab 58 3f bd e6 a6 69 bd
       0.0655355 0.027953459 -0.04671542 -0.057043932
000270 eb db 3f bd 4b e8 24 3d e9 84 49 3c f5 fb ed bc
       -0.04684059 0.040260594 0.012299755 -0.029050807
000280 9b 92 06 bd 0e 75 ca bc da 77 44 bd 1f bf 7f ba
       -0.032854658 -0.02471402 -0.04796586 -0.0009755957
000290 a0 90 9d 3b ab 9a f0 3c c6 06 b3 3d e1 02 46 bd
       0.0048085004 0.029370626 0.08741526 -0.04834259
0002a0 14 e6 4b bd 5e 59 85 bd 9a 43 11 bb 7f 0e 72 3c
       -0.049779966 -0.06511186 -0.0022165538 0.014773964
0002b0 01 e2 27 3d 12 5f 90 3d 4d ae 70 3a c6 dd 7a bd
       0.04098702 0.07049383 0.0009181246 -0.061246656
0002c0 a2 ae d2 3c ac 65 11 bb e9 8b b7 3c 3e 51 ab 3d
       0.025718037 -0.0022185845 0.022405582 0.08365105
0002d0 ff 19 41 3a 2a 20 a0 3d 81 a7 05 bb 52 1e 03 bd
       0.00073662394 0.07818635 -0.002039403 -0.032011338
0002e0 72 ff 60 3d ff b4 de 3c ca 7d 73 bd 5c 96 5e bd
       0.05493111 0.027185915 -0.059446134 -0.054342613
0002f0 54 ea 1b 3d 49 80 08 3d f5 43 a8 3c ec f1 12 3a
       0.03806527 0.033325467 0.020540217 0.0005605507
000300 2e 3d c8 3c 77 f1 32 bb 1d 01 47 bd 79 07 8f 3c
       0.024443235 -0.0027304569 -0.048585046 0.017459618
000310 9b 27 1e 3d 91 6e c3 3c 23 2d 2a 3c 27 df 93 bc
       0.03861199 0.023856433 0.010386738 -0.018050743
000320 a3 52 0f 3d aa 2c 3e bd dd cf c6 bc 04 93 4b 3d
       0.034990918 -0.046429314 -0.024269039 0.049700752
000330 ba 37 14 3d 8b 7b a8 bc 4c de 26 3d 67 ab 3d 3d
       0.036185957 -0.020566722 0.040739343 0.04630604
000340 50 06 26 3d d3 1a 6b 3d 31 db 20 3d b8 a4 a0 3d
       0.040533364 0.05739863 0.039271537 0.078439176
000350 74 d7 1b ba a8 0e 96 b9 61 67 37 bd a1 c6 8c 3d
       -0.0005944886 -0.0002862115 -0.044776324 0.06873823
000360 dd e4 80 3c 3e 4f d8 bc 7e 3b 09 bd 5f 8e a9 bc
       0.01573413 -0.026404973 -0.033504 -0.02069777
000370 6c 9b a7 3d 02 19 14 3d bc b7 41 bd ad 55 3b 3d
       0.08183941 0.03615666 -0.047294363 0.045736004
000380 7c eb 12 3d d2 32 4f bd e9 fc 16 bc fe cd c2 3d
       0.035869107 -0.050585575 -0.009215572 0.09511946
000390 8f c2 6f bc 96 79 20 bd 72 6a 8f 3d a5 32 33 3c
       -0.014633789 -0.039178453 0.07002725 0.010937368
0003a0 1b 64 c6 3a 7f 38 5b 3c a7 52 df bc 0e f9 ec b7
       0.0015136035 0.013380169 -0.027261091 -2.8249367e-05
0003b0 b6 89 51 3b fe 6e 83 bc 80 73 3c bd f1 4f aa bb
       0.0031972951 -0.016044136 -0.046008587 -0.005197518
0003c0 4e 3b 1a 3d 27 98 a2 3d 89 c5 3b bd ca e6 d6 3b
       0.037654214 0.07939177 -0.04584268 0.006558274
0003d0 22 4f 4c bd 6d d6 80 bc 9a 01 5c bd 99 33 bb 3d
       -0.049880154 -0.015727246 -0.053712465 0.09140701
0003e0 fb 3f 1b bd 08 4d 72 3b e1 50 39 3c 95 86 94 bb
       -0.037902813 0.0036972184 0.011310787 -0.004532645
0003f0 92 5a b1 3c e8 8c 76 3d ac 0e ab 3b 05 ac 83 3c
       0.021649633 0.060192972 0.005220255 0.016073236

fc4.weight f4 [2, 256]
000000 c2 32 b1 3b c8 e0 2c 3d 6f 68 9a 3c 6a bb a0 3d
       0.005407662 0.042206556 0.018848626 0.078482464
000010 3a e8 b4 bc 28 96 fa 3c 4a 47 26 3d 55 06 af bd
       -0.02208339 0.030589178 0.04059533 -0.085461296
000020 6d a1 5a 3d 77 a6 da bd 20 d0 2c 3d 87 d6 9d bd
       0.053376604 -0.10676282 0.04219067 -0.077069335
000030 cb d7 f1 3b b3 f1 4b bd b7 7b a4 3c cf 87 0e 3d
       0.007380461 -0.04979105 0.020078523 0.034797486
000040 25 66 f1 bd b6 43 8d bd f5 a0 08 be 29 02 23 3d
       -0.11787061 -0.068976805 -0.1334265 0.039796982
000050 49 a7 49 bd d2 1a fc 3c d2 40 19 bd 2b df a6 bb
       -0.0492318 0.030774508 -0.037415333 -0.0050925217
000060 dd 5d 41 bd a7 ce 91 3a 32 99 07 3d 0e 4a a7 bd
       -0.047208656 0.0011124209 0.033105083 -0.08168422
000070 eb 5d 6d bd fe 88 68 3d 2f 05 1c 3d be ff 73 3d
       -0.057950895 0.05677127 0.03809088 0.059570067
000080 db 16 07 3d 48 77 11 bd ea 9e d9 bd f5 e0 69 3c
       0.03298078 -0.035514146 -0.106260136 0.014274825
000090 e6 72 45 bd ae 2a a9 bd 86 2b 09 be 5c b2 2a bd
       -0.04820528 -0.08260094 -0.13395509 -0.041674003
0000a0 0f 5d bf 3c 54 87 2f bc 75 78 5a 3d 40 7b 5f bd
       0.023359803 -0.010713417 0.053337533 -0.0545609
0000b0 f9 0e 9c 3d d8 3b 87 bd ee ad b4 bd 9a 55 0f 3d
       0.07620043 -0.06603211 -0.08822237 0.034993745
0000c0 fb 10 32 3d 88 d9 95 bc 52 1c c6 ba 87 8c bc bd
       0.043473225 -0.018292204 -0.0015114641 -0.09206491
0000d0 94 c7 76 3d b7 df ee 39 15 b2 bb 3b 0f 0d 5e 3d
       0.060248926 0.00045561578 0.005728016 0.054211672
0000e0 ee ef a0 bd e4 56 3c 3c 4d 66 0a 3d ae 12 a0 bd
       -0.07858263 0.011495326 0.033788968 -0.07816063
0000f0 6d 0f 0c bd 4d c6 dc bd c0 27 66 bd 06 71 3c 3d
       -0.0341944 -0.1078001 -0.056190252 0.046006225
000100 7a 2e dd 39 4f 2a e2 bd ab 95 f0 bd 0d 82 85 bd
       0.00042187033 -0.11043226 -0.11747297 -0.06518946
000110 79 ae 6f bd 89 db 6a bd 95 39 b1 bd df bf 25 3d
       -0.058516 -0.05733827 -0.08653561 0.040466186
000120 8d 56 b7 bc fa bc 8d bd e0 54 60 bc 9e 8e 22 3d
       -0.022380138 -0.0692081 -0.013692111 0.03968679
000130 f1 20 2c bd 8d 3a 09 bd 9e 17 fe bd 20 7c 94 bd
       -0.042023603 -0.033503104 -0.12406848 -0.072502375
000140 7f b2 b5 ba 52 50 e3 bd 1f e8 a5 bd d8 24 1b 3d
       -0.00138624 -0.11099304 -0.08100914 0.037876934
000150 d3 96 b7 3a ea dd 88 bd 31 57 44 bd 18 dc f7 bd
       0.0014006741 -0.06682952 -0.047934715 -0.121025264
000160 ba 28 25 bc 82 5d 00 be 1b d6 66 3c 2a 1c 25 3c
       -0.010080511 -0.1253567 0.014089133 0.010077516
000170 8c 66 83 bc a0 e4 82 3d 31 dd a6 bd ea 92 5e 3c
       -0.01604011 0.06391263 -0.08147658 0.013584832
000180 fa 8f 3f bd f9 1d 81 3d 88 05 c7 bb 66 03 2b bd
       -0.046768166 0.06304545 -0.0060736574 -0.041751288
000190 aa fa e9 bd 16 03 78 bd 79 85 3e 3d 07 ea 6e bd
       -0.114247635 -0.060549818 0.04651401 -0.058328655
0001a0 da 5c 30 3d a7 bd 77 3c 40 67 c2 3c 27 79 f9 bd
       0.0430573 0.0151209 0.023730874 -0.12181311
0001b0 59 de b7 bc a9 e2 9b bd e5 79 84 3d 2c 8f 51 bc
       -0.02244489 -0.07611591 0.06468562 -0.0127904825
0001c0 f0 ce e7 bd a6 6e 9b 3d b2 d5 aa bc 20 32 19 3d
       -0.11318767 0.07589464 -0.020853851 0.03740132
0001d0 08 29 f0 bd 86 52 33 bd 9d 2a bb bc a6 fa 82 3d
       -0.11726576 -0.043779872 -0.022847468 0.06395464
0001e0 69 30 50 3d b6 4b 6f bd cb 67 99 bc dc e7 7e bd
       0.050827418 -0.058421813 -0.01872625 -0.062232837
0001f0 bd 7d 26 3b 90 11 9a 3b 0e 79 b1 bd fc 70 bd bb
       0.0025404536 0.0047018006 -0.086656675 -0.005781291
000200 e0 01 5c 3d 89 73 eb bd 11 a3 4b bc 63 58 ad bd
       0.053712726 -0.11496646 -0.012429015 -0.08464124
000210 20 c8 ac bd 33 37 64 3d 04 46 53 bd 61 1f bd bd
       -0.08436608 0.055716705 -0.051580444 -0.09234501
000220 25 85 e5 bd 75 7c 9a bd 4e a0 5a bd 94 68 22 bc
       -0.11207036 -0.075432695 -0.053375535 -0.009912629
000230 14 a2 91 3c 24 cd 19 bc 4b ea 9a 3c e6 4c 0a be
       0.01777748 -0.009387288 0.018910548 -0.13505897
000240 ac c7 87 bc e8 b4 cc bd 83 e3 5d 3d e9 81 36 bd
       -0.016574703 -0.09995443 0.05417205 -0.044557486
000250 99 53 c0 bd f0 46 8d bc 65 cd 00 3d 92 52 9b 3d
       -0.09390945 -0.01724574 0.03144588 0.075841084
000260 89 c2 eb bd 13 8a 57 bc 96 7b 3a 3d 0c f5 2a bd
       -0.11511714 -0.013155478 0.045528017 -0.0417376
000270 86 18 8f 3d 84 37 d9 bd bd b6 cd bd 81 39 73 3d
       0.06987099 -0.10606292 -0.1004462 0.059381012
000280 7c c9 16 3d 68 00 7a 3b 1d 34 14 3d c1 f5 19 3d
       0.036813244 0.0038147215 0.03618251 0.037587885
000290 e0 10 58 bd ca 2e 04 be b8 38 ac bd 7c 5c 0d 3d
       -0.05275047 -0.12908474 -0.08409256 0.034512028
0002a0 40 25 d1 bb 92 21 1a 3c e2 9f 2d 3d 25 1a 02 3d
       -0.0063826144 0.009407418 0.042388804 0.031763215
0002b0 fe ae a7 bd 41 f8 92 bd ae a9 83 3c 1a a3 69 bd
       -0.08187674 -0.07176257 0.01607212 -0.05704031
0002c0 98 cc f4 bc e8 4c ab 3c 5b 46 1e bd e7 94 04 be
       -0.029882714 0.020910695 -0.038641315 -0.12947427
0002d0 89 1f e3 bd 33 94 bf bc 1b 77 df bd cf 88 81 3c
       -0.11089999 -0.023386097 -0.109113894 0.015812306
0002e0 02 f9 9f bd 33 68 e2 bd b6 fe 32 3d d3 e1 c7 bc
       -0.07811166 -0.11055031 0.043699943 -0.024399674
0002f0 47 2a db bd ad 8e c3 bd e5 fa 58 3d f0 54 6e 3d
       -0.10701423 -0.095486976 0.052973647 0.05818647
000300 ed 21 55 3d 4d 8e 32 3d ac b6 36 bc f2 12 55 3d
       0.052034307 0.04359274 -0.011151951 0.05202002
000310 2c 3f 8b bd 85 be 47 3d d5 0c 8f bd 2e fc c5 bd
       -0.067991585 0.048765678 -0.069848694 -0.0966724
000320 6b c6 93 3d 71 9c 4f 3b 68 35 00 bc 66 d6 bc bd
       0.072155796 0.003167894 -0.007825233 -0.09220581
000330 b9 b3 75 bd 33 f5 96 3d 03 3c 2b 3d cb 40 43 3d
       -0.05998585 0.07370987 0.04180528 0.047669213
000340 a6 c1 fb bc 57 52 29 3d 0d 21 54 bd 63 42 63 bd
       -0.030731987 0.04133829 -0.051789332 -0.055483233
000350 96 31 c9 bc ea 45 8b bb b3 ca 0f bd 5f 0f 89 bd
       -0.024559777 -0.0042502778 -0.03510542 -0.06692385
000360 03 70 bd 3d 93 4b 61 3d 81 44 1e 3d 9c f2 e9 3b
       0.0924988 0.055003714 0.03863955 0.007139517
000370 dc fe 3f bd 70 25 70 3d 5d 6e 75 3d 45 1c 4b bd
       -0.046873912 0.058629453 0.059919704 -0.049587507
000380 b3 6b 56 3d d2 3c cc 3d e0 30 22 3d 41 9b ae bd
       0.052348804 0.09972538 0.039597392 -0.08525706
000390 d5 62 02 be 3c 29 c4 bc c2 f8 c5 bd 37 1e de bd
       -0.12733014 -0.023945443 -0.096665874 -0.10845607
0003a0 19 15 2c bd 1e b4 a5 bd 53 69 c0 3d a2 bf 46 3d
       -0.042012308 -0.08090995 0.09395089 0.0485226
0003b0 0c 7c 6c bd 75 4e d4 3c cb 2a 93 3a 31 6b 32 3d
       -0.057735488 0.025916317 0.0011227963 0.043559257
0003c0 57 43 87 3d f7 23 cb bd 91 27 1a bd f1 68 c8 3c
       0.06604641 -0.09918969 -0.03763539 0.024464102
0003d0 f4 33 db 3c 71 f4 5f bb 82 02 06 bd 13 5f c0 bd
       0.026758172 -0.0034172798 -0.032717235 -0.09393134
0003e0 50 0b 5b bd 5d 95 31 3d ee 38 b1 3d ff 1f cd bd
       -0.053477585 0.043355335 0.086534366 -0.100158684
0003f0 a6 90 47 bc 52 35 ea bd d2 ae cb bd 49 98 97 3a
       -0.012180483 -0.11435951 -0.09945454 0.001156577

fc4.bias f4 [2]
000000 79 11 38 3d 14 9a 79 3d
       0.04493854 0.060937956
