Task_3/model_weights/actor.pth (torch, 536447 bytes, 8 tensors)

fc1.weight f4 [256, 4]
0	0xbe523f7e	-0.20532033
1	0xbdc8ff23	-0.098142885
2	0xbf546ce7	-0.8297867
3	0xbf20c621	-0.6280232
4	0x3ddf7bf8	0.10912317
5	0xbe57f240	-0.21088505
6	0xbea4440e	-0.32083172
7	0xbd8bc390	-0.0682441
8	0xbd830216	-0.06396882
9	0x3e3c4830	0.18386912
10	0xbc4e50c9	-0.012592503
11	0xbf0103f7	-0.50396675
12	0xba875cb7	-0.0010327314
13	0xbb8b2742	-0.0042466233
14	0xbeb17135	-0.34656683
15	0x3cc6b028	0.02425392
16	0xbede46d1	-0.43413404
17	0x3ef0bff3	0.47021446
18	0xbd041c94	-0.032253817
19	0x3d50bfeb	0.050964277
20	0x3eb1fcb4	0.3476311
21	0xbd8d3179	-0.06894202
22	0x3f3dd727	0.7415642
23	0x3e9054c0	0.2818966
24	0x3e0c33e1	0.13691665
25	0x3db10ef5	0.08645431
26	0x3e423a0a	0.18967453
27	0xbd2fe28c	-0.04294066
28	0x3ef294ac	0.47379053
29	0xbeb2f943	-0.34955797
30	0xbead36a4	-0.3383075
31	0x3eb92144	0.36158192
32	0x3ef6dd0a	0.48215514
33	0xbed1f589	-0.4100764
34	0xbe7ed3db	-0.24885504
35	0x3f08c412	0.5342418
36	0x3eb2d9eb	0.34931883
37	0xbec86a49	-0.3914359
38	0xbf081a7b	-0.53165406
39	0x3e66d518	0.22542226
40	0xbe222deb	-0.15837829
41	0xbd7b740c	-0.061389968
42	0xbd291548	-0.04128006
43	0xbe4aa210	-0.19788384
44	0xbe1e8074	-0.15478688
45	0xbdd72c2e	-0.105064735
46	0x3e007514	0.12544662
47	0x3e3b15d2	0.18270043
48	0xbe3c0410	-0.18360925
49	0xbe4662dc	-0.1937365
50	0xbd8731de	-0.06601308
51	0x3e6954a7	0.22786199
52	0xbf09b830	-0.5379667
53	0x3ea2be90	0.31786013
54	0x3e5776c6	0.21041402
55	0x3dc6ac8e	0.09700881
56	0xbea6e8bc	-0.32599437
57	0x3e4a546d	0.19758768
58	0x3e549188	0.20758641
59	0xbc2f5411	-0.010701195
60	0xbe312560	-0.17299414
61	0x3ed54654	0.4165522
62	0x3ea34a9f	0.3189287
63	0x3ecf37d7	0.4047229
64	0xbd9cb3d1	-0.07651485
65	0xbef54aa5	-0.47908512
66	0xbf316428	-0.6929345
67	0xbe4bd9fb	-0.19907372
68	0x3df6358a	0.120219305
69	0xbdf3e01f	-0.11907982
70	0xbebf46bc	-0.37358654
71	0x3ea35e4f	0.3190789
72	0xbdd615c2	-0.10453369
73	0x3de3df58	0.11126584
74	0xbdd71f6e	-0.105040416
75	0xbeb7eeb8	-0.35924315
76	0xbeef08f5	-0.4668652
77	0xbe8393a2	-0.25698572
78	0x3ef24981	0.47321704
79	0xbe80a92e	-0.25129074
80	0xbeb79595	-0.3585631
81	0xbeb255f7	-0.3483121
82	0xbeefc2f8	-0.46828437
83	0xbebbe883	-0.3670083
84	0x3ee79d9a	0.45237428
85	0xbeb33e1f	-0.35008332
86	0xbe64038c	-0.22266978
87	0xbea5b797	-0.3236663
88	0xbe9b7deb	-0.30369505
89	0xbe1d1b1e	-0.15342376
90	0xbe9538c8	-0.29144883
91	0x3f1086e4	0.56455827
92	0xbc9cde3e	-0.019148942
93	0xbe9cc141	-0.3061619
94	0x3e998814	0.29986632
95	0x3f064c39	0.52460057
96	0x3e7e2ebe	0.24822518
97	0xbe615920	-0.22006655
98	0xbe7d4bb5	-0.24735911
99	0x3dc3202e	0.09527622
100	0x3ebf4445	0.37356773
101	0x3efeb7f2	0.49749714
102	0x3e6d45ab	0.23171107
103	0x3f0b82f1	0.54496676
104	0xbeab9bc5	-0.3351728
105	0x3ec097b5	0.37615743
106	0xbe0956ec	-0.13412064
107	0x3ef95360	0.48696423
108	0xbed94d34	-0.42441714
109	0x3d3424a9	0.043980274
110	0x3e5c1733	0.21493225
111	0x3e3fd14a	0.18732181
112	0xbecc3f6c	-0.39892137
113	0x3d310602	0.04321862
114	0x3e59a74c	0.21255225
115	0x3ec4cded	0.3843836
116	0xbef44e5a	-0.47716027
117	0x3e84ace0	0.25913143
118	0x3e3451d2	0.17609337
119	0xbef72e54	-0.48277533
120	0x3eb9209c	0.3615769
121	0xbee7d631	-0.45280603
122	0x3de598ed	0.11210809
123	0x3e969a6f	0.29414698
124	0xbea4837c	-0.32131565
125	0xbdb75613	-0.08951964
126	0x3f10ecde	0.5661143
127	0x3e6bc050	0.2302258
128	0xbed545fb	-0.41654953
129	0xbdb39a15	-0.08769623
130	0xbda3ef1a	-0.080045894
131	0x3ed803a5	0.4219028
132	0xbf05fade	-0.5233592
133	0x3ea363a2	0.3191195
134	0x3f14234c	0.5786636
135	0x3ee5d32f	0.44887683
136	0xbe4ee0a3	-0.2020288
137	0xbee49850	-0.44647455
138	0xbef7ef44	-0.48424733
139	0x39c71cfc	0.00037977833
140	0xbe286c0d	-0.16447468
141	0x3e6ea2b1	0.2330425
142	0x3f331f41	0.69969565
143	0x3f177f93	0.5917904
144	0xbf0c7319	-0.54863125
145	0x3e1b0a72	0.15140703
146	0xbc53d2b4	-0.0129286535
147	0x3dc71c5e	0.097222075
148	0xbe824832	-0.25445706
149	0xbde0fd30	-0.10985792
150	0x3e995f98	0.29955745
151	0x3ed7388e	0.42035335
152	0xbc4ed1e4	-0.012623284
153	0x3d36694d	0.044534016
154	0x3d4987ec	0.04920189
155	0x3e87fd04	0.26560223
156	0xbdcc3b48	-0.099722445
157	0x3e2ff788	0.1718427
158	0xbf076582	-0.52889264
159	0xbef11043	-0.4708272
160	0xbed07f88	-0.407223
161	0x3ecbfac1	0.39839748
162	0xbdf6cd53	-0.12050881
163	0x3ef8264f	0.48466727
164	0xbe81204d	-0.25219956
165	0x3e93f085	0.2889444
166	0x3ea2cc7b	0.3179663
167	0x3f2771dc	0.6540811
168	0x3ea50842	0.32232863
169	0x3ea90cda	0.33017617
170	0x3eeaeaa3	0.4588214
171	0x3ed86977	0.42267963
172	0xbe25d1d9	-0.16193332
173	0xbe65507c	-0.22393984
174	0xbd46f565	-0.04857387
175	0xbee4be6f	-0.4467654
176	0x3e255740	0.16146564
177	0x3d4ba198	0.049714655
178	0xbe878d7d	-0.26475134
179	0x3cb6a591	0.022295745
180	0x3e433ec9	0.1906692
181	0x3e82ee27	0.2557232
182	0xbce58e60	-0.028021991
183	0xbec73393	-0.38906536
184	0x3e6085ad	0.21925993
185	0xbe36b0fc	-0.17840952
186	0xbf0426c3	-0.51621646
187	0xbed1bfcf	-0.4096665
188	0xbe1b9d20	-0.15196657
189	0xbec5a50d	-0.38602486
190	0xbebc252e	-0.36747116
191	0xbf02fb31	-0.5116454
192	0xbeb32642	-0.34990126
193	0x3eecb7d4	0.46234
194	0x3ec524ae	0.38504547
195	0x3e191b01	0.14951707
196	0xbf092ab0	-0.5358076
197	0xbb60d96a	-0.0034309276
198	0xbe1553ea	-0.14582792
199	0x3e7e3ea0	0.24828577
200	0x3e7ef328	0.24897444
201	0x3ed3a73e	0.41338533
202	0xbf134b3d	-0.5753668
203	0xbf19ed06	-0.60127294
204	0xbe4a6c1d	-0.19767804
205	0xbd9f3335	-0.07773439
206	0xbec19345	-0.3780767
207	0x3dc482e8	0.09595281
208	0xbe9ed2ab	-0.31020102
209	0x3ec5b1fc	0.38612354
210	0x3d483f2d	0.048888374
211	0xbf0ead8d	-0.5573357
212	0x3d840ad1	0.064473756
213	0xbe0b8d1c	-0.13628048
214	0x3e3140fe	0.17309949
215	0x3eab007b	0.33398804
216	0xbe3ebfc5	-0.18627842
217	0xbea36f74	-0.3192097
218	0x3e1be0d4	0.15222484
219	0xbe24e0dc	-0.16101402
220	0xbedfeccc	-0.4373535
221	0xbe016467	-0.12635957
222	0xbe74f72d	-0.23922415
223	0xbe89ca6a	-0.26912242
224	0x3ee3046a	0.44339305
225	0xbecba3e8	-0.39773488
226	0xbf025766	-0.5091461
227	0x3e7b6cd8	0.2455324
228	0xbe1eb689	-0.15499319
229	0x3ee6a76f	0.45049617
230	0x3ee6e10a	0.45093566
231	0x3e382753	0.17983751
232	0xbeeb047e	-0.45901865
233	0xbe46c082	-0.19409373
234	0xbe726229	-0.23670258
235	0x3e2ec03a	0.17065516
236	0xbe916e11	-0.28404287
237	0xbed47928	-0.41498685
238	0xbf17562c	-0.5911586
239	0xbdc36453	-0.0954062
240	0xbeb2cbbd	-0.34921065
241	0xbd4737db	-0.048637252
242	0xbe73a0d4	-0.2379182
243	0xbe853c6f	-0.2602267
244	0xbf06ec52	-0.52704346
245	0x3ed78f43	0.42101488
246	0x3ee819dd	0.45332232
247	0xbefc1005	-0.49230972
248	0x3eb492a4	0.35268128
249	0x3e87b77d	0.26507178
250	0x3e494570	0.19655395
251	0xbe4e9b9f	-0.20176552
252	0xbc6074ca	-0.01369972
253	0xbd8c791f	-0.068590395
254	0xbe85b6d1	-0.2611604
255	0x3dd0fe52	0.10204758

fc1.bias f4 [256]
0	0x3e21f98a	0.15817848
1	0xbef606ba	-0.48052007
2	0xbdf42a9e	-0.11922191
3	0xbdc83d13	-0.09777274
4	0x3d757b7f	0.05993223
5	0x3e135e09	0.1439134
6	0xbec91b58	-0.39278674
7	0xbe63b336	-0.22236332
8	0x3eb5088f	0.35358092
9	0x3e889488	0.2667582
10	0xbed7a440	-0.421175
11	0xbdc6466c	-0.09681401
12	0x3e6b275a	0.2296423
13	0x3ecac9e1	0.39607146
14	0xbe30ea61	-0.17276908
15	0x3e147e44	0.14501292
16	0x3e844c8f	0.2583966
17	0x3e35392e	0.17697594
18	0x3ec577fa	0.38568097
19	0x3ea239e6	0.31684798
20	0x3e166a6b	0.14689033
21	0x3e175cb3	0.14781456
22	0x3ca0ded2	0.019637499
23	0x3cec78f6	0.028866272
24	0x3e68f5a9	0.22749962
25	0x3ddcca7f	0.107808106
26	0x3d4f4783	0.05060531
27	0x3da69268	0.081333935
28	0x3d848c5a	0.064720824
29	0xbdd6114f	-0.1045252
30	0xbed16bbf	-0.40902516
31	0x3e4a7b71	0.19773652
32	0x3d00615f	0.03134286
33	0x3ea483b5	0.32131734
34	0xbe5362a1	-0.20643093
35	0x3dfb075d	0.12257264
36	0x3e6d8e09	0.23198713
37	0xbef477d5	-0.47747675
38	0xbe77319a	-0.24140015
39	0x3d06621d	0.032808412
40	0x3ea90be8	0.33016896
41	0x3ed5c332	0.41750485
42	0x3d22f3dd	0.039783347
43	0x3df4fb4b	0.11961993
44	0xbefd95bd	-0.49528304
45	0xbed3b8d3	-0.41351947
46	0x3e1848ec	0.14871567
47	0x3e0e3671	0.13887955
48	0x3dc852dd	0.0978143
49	0xbdf38958	-0.118914306
50	0x3de084f4	0.10962859
51	0xbe73d4e4	-0.2381168
52	0x3d521fa8	0.05129972
53	0x3ca6ab3d	0.020345325
54	0xbea81917	-0.32831642
55	0xbdc17b30	-0.09447324
56	0xbef28a85	-0.47371307
57	0xbeb9213b	-0.36158165
58	0xbdc8dc51	-0.09807647
59	0x3e24f9c6	0.16110906
60	0xbe439657	-0.19100319
61	0x3ed688b1	0.41901162
62	0x3eb574ab	0.35440573
63	0x3e98026f	0.29689357
64	0xbed4f4f9	-0.4159315
65	0xbee62b81	-0.44955066
66	0xbeb78d52	-0.35850006
67	0xbd6bb7e9	-0.057548437
68	0x3da5e27a	0.080998376
69	0x3e28a85e	0.16470477
70	0xbd308d90	-0.043103755
71	0xbef3571e	-0.47527403
72	0xbe9ef99e	-0.31049818
73	0x3e53dc6d	0.20689555
74	0x3e588749	0.21145357
75	0xbe93c95f	-0.2886457
76	0xbece2ac4	-0.40267003
77	0x3dd40d75	0.10354129
78	0x3e50e447	0.20399581
79	0xbe492417	-0.19642673
80	0x3ee7d987	0.45283148
81	0x3e414f44	0.18877894
82	0x3efb766d	0.4911379
83	0x3e91723a	0.2840746
84	0xbe0db778	-0.13839519
85	0x3e3fe70c	0.18740481
86	0x3e2dd3e7	0.16975366
87	0xbed636d8	-0.41838717
88	0x3e198c60	0.14994955
89	0xbeb132d6	-0.34609097
90	0xbde03cc5	-0.10949091
91	0xbed1f0c3	-0.41004
92	0xbf023da5	-0.5087531
93	0x3e9df76b	0.30852827
94	0x3e9e7188	0.30945992
95	0xbe770962	-0.24124673
96	0x3e0e01fe	0.13867947
97	0x3df6a003	0.120422386
98	0xbe92fff6	-0.28710908
99	0x3e9f14bc	0.31070507
100	0x3d3cfa42	0.046137102
101	0xbee18cf7	-0.4405286
102	0xbecf22e9	-0.40456322
103	0x3b3d8e72	0.0028924015
104	0x3e681066	0.22662506
105	0x3ed34d31	0.4126983
106	0x3e3c1347	0.18366729
107	0x3d81e029	0.06341583
108	0x3ec37859	0.38177755
109	0x3eaa13f3	0.33218345
110	0x3e92544d	0.2857994
111	0xbec13911	-0.3773885
112	0x3d8ff2c0	0.07028723
113	0x3d521f05	0.051299114
114	0xbdf6118a	-0.12015064
115	0xbe986b3f	-0.29769322
116	0x3ee850dd	0.45374194
117	0xbf1258d5	-0.57166797
118	0x3ec2300e	0.37927288
119	0xbef877fa	-0.48529035
120	0xbc88d9b0	-0.016705364
121	0xbe0eceb4	-0.13946038
122	0x3d4210ed	0.047379423
123	0x3e3db9d1	0.18527915
124	0x3e0793c7	0.13239966
125	0x3ea3514e	0.31897968
126	0xbd83516c	-0.06412014
127	0xbf1312d1	-0.57450587
128	0x3ec1cf6d	0.37853566
129	0xbe4affd4	-0.19824153
130	0x3b6b38ff	0.0035892127
131	0x3df3d840	0.11906481
132	0x3ee18860	0.44049358
133	0x3c70d5c0	0.0146993995
134	0x3d8f9d04	0.0701237
135	0xbe978b69	-0.2959855
136	0xbedc2483	-0.42996606
137	0xbed92d27	-0.4241726
138	0x3e915e21	0.28392127
139	0x3c84d5db	0.016215255
140	0xbed03d12	-0.40671593
141	0xbe385d64	-0.18004376
142	0x3ed760a1	0.4206591
143	0xbe8c2e1a	-0.27378923
144	0xbec97093	-0.393437
145	0xbea3eae4	-0.32015145
146	0xbeca9bb0	-0.39571905
147	0xbed3473e	-0.4126529
148	0x3d3a2462	0.045444854
149	0x3ee331b5	0.4437386
150	0x3ef8a6de	0.4856481
151	0x3e2046c4	0.15651995
152	0x3d90ec27	0.070762925
153	0xbea2f1a3	-0.3182498
154	0xbed533a2	-0.41640955
155	0x3ea25ecb	0.31712946
156	0x3ee67571	0.45011476
157	0x3eaeb678	0.34123588
158	0xbedd79fd	-0.43257132
159	0x3ed8a0e6	0.42310256
160	0x3e9d24b9	0.3069208
161	0xbec7f1fd	-0.3905181
162	0x3decb8e9	0.11558706
163	0xbe117308	-0.14204037
164	0xbcf799b7	-0.030224664
165	0xbee1ebcd	-0.44125214
166	0x3e878572	0.26468998
167	0x3d994d37	0.07485431
168	0xbec1d544	-0.3785802
169	0xbec4fcec	-0.38474214
170	0x3d5e4c57	0.054272022
171	0x3d2dc2fb	0.042422276
172	0xbed5755e	-0.41691107
173	0x3e825e99	0.25462797
174	0x3e195d21	0.14976932
175	0xbecc5e37	-0.3991563
176	0xbee84e6e	-0.45372337
177	0x3efbb8ae	0.49164337
178	0x3cde04e2	0.027101938
179	0x3ea82d3d	0.32847014
180	0x3c86e582	0.01646686
181	0x3ed99697	0.42497703
182	0xbe2372ff	-0.15961836
183	0x3d397396	0.045276247
184	0xbdd540b6	-0.10412733
185	0x3e11606e	0.14196941
186	0x3e140c3d	0.14457794
187	0xbd20e15b	-0.039277416
188	0xbe26a20a	-0.1627275
189	0x3c694f3a	0.0142400805
190	0xbdbb4332	-0.09143676
191	0x3e1a1465	0.15046842
192	0xbef8345d	-0.4847745
193	0x3e40b472	0.18818834
194	0xbeeb0411	-0.4590154
195	0xbe7d5405	-0.24739082
196	0x3e5ab5a9	0.2135836
197	0xbe37bbb0	-0.17942691
198	0xbdef2466	-0.11676864
199	0xbeae6ad8	-0.3406589
200	0x3eb0c980	0.34528732
201	0xbd0fe2a4	-0.03512825
202	0x3ea3b8d3	0.31976947
203	0xbe442a70	-0.19156814
204	0x3ddcdc97	0.10784262
205	0x3ebdc251	0.37062314
206	0xbedc5ccd	-0.4303955
207	0xbec6c805	-0.38824478
208	0x3ef8d225	0.48597828
209	0xbef27fa1	-0.47362998
210	0xbed7977b	-0.42107758
211	0xbd6e66a0	-0.05820334
212	0xbc333ae4	-0.010939334
213	0xbe9f0171	-0.31055787
214	0x3e7e5eaf	0.24840806
215	0xbe9cb280	-0.30604935
216	0xbd0bb841	-0.034111265
217	0x3e1f51ea	0.15558591
218	0x3c724b8a	0.014788518
219	0x3ebee992	0.37287575
220	0xbeff64e1	-0.49881652
221	0xbeacdca3	-0.33762082
222	0x3d2d492b	0.042306107
223	0x3ec5b61a	0.38615495
224	0xbea9b816	-0.3314826
225	0x3e8928c6	0.2678892
226	0x3d69aafb	0.057047825
227	0x3e4679c5	0.19382389
228	0xbead04fd	-0.33792868
229	0x3ee25c21	0.44210914
230	0xbe9226f8	-0.28545356
231	0x3e650b56	0.22367606
232	0x3eed2feb	0.4632562
233	0xbe80bcab	-0.25143942
234	0x3ede14f3	0.43375358
235	0x3cc1afa6	0.023643326
236	0x3ebf4949	0.373606
237	0xbea8b32e	-0.32949203
238	0xbebb2052	-0.36548096
239	0xbe33f0b4	-0.1757229
240	0x3e4ab166	0.19794235
241	0xbebe0559	-0.37113455
242	0xbd31f075	-0.04344221
243	0x3c4caf3d	0.012492952
244	0x3deca989	0.11555774
245	0xbe9aa64c	-0.30205
246	0x3e53f982	0.20700648
247	0x3e048f08	0.12945187
248	0xbe93c76f	-0.28863093
249	0x3e3591cc	0.17731398
250	0xbe355842	-0.17709449
251	0xbea12ace	-0.3147797
252	0xbecc3ed0	-0.39891672
253	0xbe0da082	-0.1383076
254	0xbd391950	-0.045190156
255	0xbde7b303	-0.11313441

fc2.weight f4 [256, 256]
0	0x3d8929a7	0.06697398
1	0xbc884150	-0.016632706
2	0x3d2ac7ce	0.041694455
3	0xbb99d553	-0.0046946197
4	0x3d163968	0.03667584
5	0xbda37207	-0.07980733
6	0xbd1686fd	-0.03674983
7	0x3bd782ef	0.006576888
8	0xbd0499d4	-0.032373264
9	0xbd137640	-0.036001444
10	0x3d2b0c67	0.041759875
11	0xbc1ba7bb	-0.009500439
12	0xbb06006b	-0.0020447026
13	0xbdbe77c1	-0.09300185
14	0xbd735a37	-0.059412207
15	0xbd73e8e3	-0.05954827
16	0x3d66c273	0.056337785
17	0xbd1ed4c9	-0.038777146
18	0xbbce4b16	-0.006295572
19	0x3d40310b	0.04692177
20	0xbcb08fd6	-0.021552961
21	0xbcda122e	-0.026619997
22	0x3d194f5c	0.0374292
23	0xbd613d8e	-0.054990344
24	0xbc9d27e3	-0.019184059
25	0xbd1a7488	-0.03770879
26	0xbdbbaf8a	-0.09164341
27	0x3caddf4e	0.021224644
28	0xbd8debea	-0.06929763
29	0x3c4d99d7	0.012548885
30	0xbd0e5dd5	-0.034757454
31	0x3c826d7e	0.01592135
32	0xbd015f56	-0.03158506
33	0xbd4421d6	-0.04788383
34	0x3bad33b7	0.005285706
35	0xbd6db956	-0.05803808
36	0x3caee6e8	0.021350339
37	0xbd8a04b0	-0.06739175
38	0xbd25bc0f	-0.04046255
39	0x3bdb0f80	0.0066851974
40	0xbc290d3f	-0.0103180995
41	0xbd03ccd4	-0.03217776
42	0xbbc6d26f	-0.006067566
43	0x3976a835	0.0002352305
44	0xbc420abe	-0.011843381
45	0xbcc36d30	-0.023855776
46	0xbc79dacd	-0.01524992
47	0xbc17007a	-0.009216422
48	0xbcd9bbc4	-0.026578791
49	0xbc76c111	-0.015060679
50	0x3d41312a	0.047166027
51	0x3d430844	0.047615305
52	0xbd3242c7	-0.043520715
53	0x3cab7cc1	0.02093351
54	0x3c648371	0.013947354
55	0x3d5e39fc	0.054254517
56	0xbd50d9ce	-0.050988965
57	0x39871b87	0.00025769716
58	0x3c19e84d	0.009393764
59	0xbc6b3b41	-0.014357389
60	0x3c86288b	0.016376754
61	0xbd86377c	-0.065535516
62	0x3bd717ae	0.006564102
63	0xbd2a08d1	-0.041512314
64	0xbd50dd3b	-0.05099223
65	0x3cfa060a	0.030520458
66	0x3b48f539	0.0030663742
67	0x3d922186	0.071353
68	0xbdc7402d	-0.097290374
69	0xbceacb15	-0.02866129
70	0xbceb2ae7	-0.02870698
71	0xbd489a39	-0.048975203
72	0x3d191b95	0.03737982
73	0x3d2dfd0f	0.042477664
74	0x3ce77555	0.02825419
75	0xbc52561a	-0.012837911
76	0xbc40fcb3	-0.011778998
77	0x3d15a024	0.036529675
78	0xbc64576e	-0.0139368605
79	0xbd4524ab	-0.048130672
80	0x3d7e7dfa	0.06213186
81	0xbd06e6f0	-0.032935083
82	0xbb5cd932	-0.0033698794
83	0xbd2bb08d	-0.04191642
84	0xbd9bf18b	-0.0761443
85	0x3c082cfe	0.008311508
86	0xbdda32bb	-0.10654207
87	0x3c9e6af4	0.019338109
88	0xbd0a76a8	-0.033804566
89	0x3d00d9b0	0.031457603
90	0x3b58148f	0.0032971238
91	0xbcfac60d	-0.030612016
92	0x3b0f887c	0.002190142
93	0xbda72888	-0.081620276
94	0xbd1c44cf	-0.03815156
95	0x3d30213f	0.043000456
96	0xbd3ca625	-0.046056885
97	0x3c249337	0.010044864
98	0x3d359f6e	0.044341497
99	0xbd983a71	-0.07433022
100	0xbd85d7d4	-0.065353066
101	0xbc974fdf	-0.018470703
102	0x3bee6e88	0.00727636
103	0xbd8329ac	-0.06404433
104	0x3d65eaa6	0.05613198
105	0xbd9e4179	-0.07727332
106	0xbd8eeb3b	-0.069784604
107	0x3b038b7a	0.0020072148
108	0x3d4c725b	0.049913745
109	0xbd6a4862	-0.057197936
110	0xbbd16282	-0.006389917
111	0xbd06a598	-0.032872766
112	0xbc9e5cb9	-0.019331323
113	0xbcc1a8cc	-0.023640059
114	0x3d3de2a3	0.046358716
115	0x3c8b10a8	0.016975716
116	0xbc1fb12b	-0.00974683
117	0x3d13d8cf	0.036095437
118	0x3c2cb676	0.010541549
119	0x3bc91cb4	0.006137455
120	0x3d374814	0.044746473
121	0xbd2e241b	-0.0425149
122	0xbc8f50c0	-0.01749456
123	0x3d99101f	0.07473778
124	0xbd036348	-0.032077104
125	0xbbbb8c5b	-0.005723519
126	0xbb4e80b1	-0.0031509812
127	0x3d6be90b	0.057595294
128	0x3c02a853	0.007974702
129	0x3d8651da	0.06558581
130	0x3d7ad17d	0.06123494
131	0x3c9ab43a	0.018884767
132	0xbd12864f	-0.035772618
133	0xbd286a5c	-0.041117057
134	0xbd2a93d9	-0.041644905
135	0x3d6f83fa	0.058475472
136	0xbd7d32a7	-0.061815884
137	0x3b44473f	0.0029949693
138	0x3b1c7b39	0.0023877157
139	0xbd224cab	-0.039623898
140	0x3d155636	0.03645917
141	0x3d1fc8d0	0.03900987
142	0xbd39345b	-0.045215946
143	0x3cc9c845	0.024631629
144	0xbd0e7926	-0.034783505
145	0x3b059f85	0.002038927
146	0xbd1b2c5c	-0.0378841
147	0x3d3bc7a2	0.04584468
148	0xbc490311	-0.0122687975
149	0xbbbd7966	-0.005782294
150	0x3d57d45f	0.052692767
151	0xbd95b995	-0.073107876
152	0x3ce638ef	0.02810332
153	0xbceec6af	-0.029147474
154	0xbd0a9bc6	-0.033839963
155	0xbda1f745	-0.07908491
156	0x3c170ee4	0.009219859
157	0x3d10e905	0.035378475
158	0x3b0a92ff	0.0021144745
159	0x3cf6802f	0.03009042
160	0xbd297ae2	-0.041376956
161	0xbcb8a95f	-0.0225417
162	0xbb0ef895	-0.0021815647
163	0x3d21af95	0.03947409
164	0x3a5dc28b	0.000845947
165	0x3cc4fee7	0.024047328
166	0xbcc7543f	-0.024332164
167	0xbd66208a	-0.056183375
168	0xbcb56577	-0.022143109
169	0x3cec304b	0.028831622
170	0xbdaf06f6	-0.085462496
171	0xbd0c6a95	-0.034281332
172	0x3c98f37c	0.01867079
173	0x3d0fdbb0	0.03512162
174	0x3cdfee56	0.027335327
175	0x3d83acdf	0.06429457
176	0x3cfceff6	0.030876141
177	0xbc8e0e1b	-0.01734071
178	0xbd197170	-0.037461698
179	0xbdc7dc83	-0.09758856
180	0x3c39db28	0.011343755
181	0xbd82b031	-0.06381262
182	0x3d8d71d7	0.06906479
183	0x3cfec4d1	0.031099709
184	0x3d3b67b7	0.045753207
185	0x3bc9339c	0.0061401855
186	0xbcaba9f8	-0.02095507
187	0xbd8427a2	-0.06452872
188	0xbc8d8733	-0.017276382
189	0xbd3465cf	-0.044042405
190	0xbccf618d	-0.02531507
191	0x3cb4c213	0.022065198
192	0xbc587e0a	-0.013213644
193	0x3c0d29fe	0.008615969
194	0x3c97ab5d	0.01851433
195	0x3cf49898	0.029857919
196	0x3cac516e	0.021034922
197	0xbcc22f07	-0.023704065
198	0xbdb1306a	-0.086518124
199	0xbda20a75	-0.07912151
200	0xbd837be1	-0.064201124
201	0x3cd491f1	0.025948497
202	0x3c500556	0.012696585
203	0x3d352139	0.044221137
204	0xbb79d533	-0.0038121461
205	0xbccd02f6	-0.025025826
206	0x3cc7d3bc	0.024392955
207	0x3cab0598	0.02087669
208	0x3c51977d	0.012792465
209	0x3cb6835d	0.022279436
210	0x3c8198b1	0.01581988
211	0x3c9585ad	0.018252218
212	0x3cb79d9d	0.022414023
213	0xbb0bd582	-0.0021336977
214	0xbc0e9147	-0.008701629
215	0xbcf82b84	-0.030294187
216	0x3aee5efd	0.0018186268
217	0xbd965300	-0.0734005
218	0xbd62e074	-0.055389836
219	0xbbeb7fde	-0.007186874
220	0xbd07c167	-0.033143427
221	0x3c3814c0	0.011235416
222	0xbda93592	-0.08262171
223	0xbd1ee52f	-0.038792785
224	0x3cf70986	0.030155908
225	0xbbbbd5c9	-0.0057322723
226	0x3d4bea2c	0.04978387
227	0x3c295f80	0.01033771
228	0xbd5c4c85	-0.053783912
229	0xbd67ce4b	-0.05659322
230	0xbd36e9c7	-0.04465654
231	0x3d498923	0.04920305
232	0x3d6386f0	0.05554861
233	0x3d82a090	0.06378281
234	0xbc343dd3	-0.011001068
235	0xbcb0f1b7	-0.021599634
236	0x3bb4a60d	0.005512959
237	0xbd0fa220	-0.035066724
238	0xbd4176cb	-0.04723243
239	0x3c115692	0.008870738
240	0xbd014037	-0.03155538
241	0xbd79f646	-0.06102588
242	0x3c76bfb0	0.01506035
243	0xbd4aba74	-0.04949422
244	0x3c674523	0.014115605
245	0xbcea226d	-0.028580869
246	0x3d234906	0.039864562
247	0x3a84a365	0.0010119496
248	0x3ca52194	0.020157613
249	0xbd902a92	-0.0703937
250	0x3d4f1740	0.050559282
251	0xbd1cb1d8	-0.038255543
252	0x3bc9feee	0.006164423
253	0xbc66f1e7	-0.01409576
254	0xbc5999d4	-0.013281304
255	0x3cf8239f	0.030290423

fc2.bias f4 [256]
0	0xbc75dc60	-0.015006155
1	0x3d0dcde1	0.03462017
2	0xbc1f18c5	-0.009710495
3	0xbd325d55	-0.04354604
4	0xbc24ab4b	-0.010050605
5	0x3d9aa3a9	0.07550747
6	0x3c456924	0.012048993
7	0xbc7f53e9	-0.015583971
8	0xbcba49fb	-0.022740355
9	0x3cb3c0e8	0.02194257
10	0x3daf9c14	0.085746914
11	0xbb83d0da	-0.0040227
12	0xbcc6a3a0	-0.024247944
13	0x3c26dc59	0.010184371
14	0x3d092418	0.033481687
15	0x3c9d756c	0.01922103
16	0x3ca75978	0.020428404
17	0xbd18fe54	-0.03735192
18	0xba21cba5	-0.0006172008
19	0x3ccc26dc	0.024920873
20	0xbcc2677a	-0.023730982
21	0x3da309f9	0.079608865
22	0x3d10dace	0.03536492
23	0xbd2f3464	-0.042774573
24	0xbc9ce0f8	-0.019150242
25	0x3cba393e	0.022732373
26	0x3c1c5b57	0.0095432615
27	0x3c4b631b	0.012413765
28	0x3adb602f	0.0016737039
29	0xbd1d5676	-0.038412534
30	0x3d3dbb86	0.046321414
31	0x3d0cb8ad	0.034355808
32	0xbdb79df0	-0.08965671
33	0xbb4dafc9	-0.0031385294
34	0x3cc3df52	0.023910198
35	0x3d746df9	0.05967519
36	0xbc344ed2	-0.01100512
37	0x3c83489c	0.016025834
38	0x3baaaca9	0.005208571
39	0x3d158331	0.036502067
40	0x3c8836d9	0.016627716
41	0x3c9eb83d	0.019374961
42	0xbb653462	-0.003497385
43	0x3dc06b4c	0.09395465
44	0xbd40b31f	-0.047045823
45	0xbce66e06	-0.028128635
46	0xbb5c2ca6	-0.0033595948
47	0xbaa5f2ab	-0.0012660822
48	0xbac23624	-0.001481716
49	0xbd5b0d2f	-0.05347937
50	0x3d589f71	0.05288643
51	0xbd53179a	-0.05153618
52	0x3c3ae4c6	0.011407083
53	0x3c39a7c8	0.011331506
54	0x3cb0e419	0.02159314
55	0xbcf17373	-0.029473996
56	0x3c8ae1e4	0.016953416
57	0x3d4d1730	0.05007094
58	0x3b806aac	0.0039189663
59	0x3d992115	0.07477013
60	0xbd8af1da	-0.06784411
61	0xbcd9f432	-0.0266057
62	0xbda315e1	-0.079631574
63	0x3d6de439	0.05807898
64	0xbd7c5ec6	-0.06161382
65	0x3ab541c1	0.00138288
66	0x3c484d16	0.01222541
67	0x3d007a31	0.03136653
68	0xbd105e5d	-0.03524624
69	0xbd0c48cb	-0.03424911
70	0xbd89402e	-0.067016944
71	0xbc2cd084	-0.010547761
72	0x3b6152df	0.003438167
73	0x3d28f564	0.041249648
74	0x3cfb0633	0.030642604
75	0xbd9cf6b2	-0.07664241
76	0xbd899b06	-0.067190215
77	0xbc434c77	-0.011920086
78	0x3d35d5d1	0.044393364
79	0x3d9b8016	0.0759279
80	0xbcbfc6e4	-0.023410268
81	0x3d2197cc	0.039451405
82	0x3d099fe5	0.033599753
83	0xbced2991	-0.028950484
84	0xbd31197b	-0.04323719
85	0x3d95ce6b	0.07314762
86	0xbb973a7a	-0.0046151252
87	0xbc809a59	-0.015698599
88	0xbb960651	-0.0045783897
89	0xbd9690c9	-0.07351834
90	0xbbfc3b7c	-0.007697521
91	0x3cf6f8b5	0.03014789
92	0x3b93218a	0.004490082
93	0xbbdc4627	-0.00672223
94	0xbd08bb47	-0.033381727
95	0xbcdd8823	-0.027042454
96	0x3ce76576	0.028246623
97	0xbca73ea8	-0.020415619
98	0xbd86a031	-0.06573523
99	0xbd5de6f4	-0.054175332
100	0xbd7a5880	-0.061119556
101	0xbd1070b3	-0.03526373
102	0xbc380d99	-0.011233711
103	0x3cf36572	0.029711459
104	0xbd59160c	-0.05299954
105	0x3d0d2d05	0.034466762
106	0xbd99b11d	-0.07504485
107	0x3d74c794	0.059760645
108	0xbd886225	-0.066593446
109	0xbcea8e77	-0.028632386
110	0xbd06462b	-0.03278176
111	0x3c0dd127	0.008655823
112	0xbcf0c837	-0.029392345
113	0xbd2ac60b	-0.041692775
114	0x3d807485	0.06272224
115	0x3d21a25e	0.039461486
116	0xbd6ac4b7	-0.05731651
117	0xbcb86810	-0.022510558
118	0x3d95e69b	0.07319375
119	0xbd2adb91	-0.0417133
120	0x3c0e7bec	0.008696537
121	0xbc3fe951	-0.011713342
122	0x3d36ec7a	0.044659115
123	0x3c85b4b3	0.016321516
124	0x3d3d93c4	0.0462835
125	0xbd23a9c4	-0.039956823
126	0xbd53e201	-0.051729206
127	0xbbd67e56	-0.006545822
128	0x3d0ef0f2	0.034897752
129	0xbcd7187c	-0.026256792
130	0x3b618d13	0.0034416362
131	0xbd36a892	-0.044594355
132	0xbd720069	-0.059082422
133	0x3cb0b945	0.021572718
134	0x3d6471a5	0.055772442
135	0x3c3687b3	0.011140752
136	0x3d1e8187	0.038697746
137	0x3bcc58b2	0.0062361592
138	0xbd1c6360	-0.03818071
139	0xbcc9c258	-0.024628803
140	0xbd3659b1	-0.04451913
141	0x3c1a9fd6	0.009437522
142	0xbd86a93f	-0.0657525
143	0x3c285452	0.01027401
144	0x3c36a539	0.011147791
145	0x3c9733b8	0.018457279
146	0x3d0e6612	0.03476531
147	0xbd63091a	-0.0554286
148	0xbca208c9	-0.01977958
149	0xbd47a030	-0.04873675
150	0xbcf5a92a	-0.02998789
151	0x3d64d953	0.05587132
152	0xbd110e6a	-0.035414137
153	0xbd757ecc	-0.059935376
154	0xbce0980e	-0.027416255
155	0xbca1812a	-0.01971491
156	0x3cb300ab	0.021850904
157	0x3d4a5663	0.04939879
158	0xbc79e553	-0.015252429
159	0xbd64bb56	-0.05584272
160	0xbb2a0bb7	-0.0025946924
161	0xbaf6cec0	-0.0018829927
162	0x3b9b1b39	0.00473347
163	0xbd0b51f3	-0.0340137
164	0x3d3baeb6	0.045820914
165	0x3c662257	0.014046273
166	0xbd4fd928	-0.050744206
167	0xbc2b4d83	-0.010455492
168	0xbd07ea61	-0.033182506
169	0xbc9acb6d	-0.01889583
170	0xbc5d70ac	-0.013515633
171	0xbc6e95d9	-0.014562094
172	0xbcdcc5bf	-0.026949761
173	0xbca07298	-0.019585893
174	0xbd0a6259	-0.033785198
175	0xbd9fc045	-0.078003444
176	0xbc9edd18	-0.019392535
177	0x3d3e4fc7	0.0464628
178	0xbce0b69c	-0.027430825
179	0xba32b4a4	-0.00068170787
180	0x3ddbc180	0.107302666
181	0x3d7a9880	0.06118059
182	0xbd8c055d	-0.068369605
183	0xbd60edd8	-0.054914325
184	0x3d49ffa3	0.04931606
185	0xbad4cd8f	-0.0016235578
186	0xbcdb9965	-0.026806543
187	0xbd9a43d7	-0.07532471
188	0xbd65660b	-0.05600552
189	0xbd4eebe9	-0.05051795
190	0x3cbaa0b0	0.0227817
191	0xbb308a7a	-0.0026938007
192	0xbcfcce9f	-0.030860243
193	0x3c37561d	0.011189965
194	0xbc95df02	-0.018294815
195	0x3d31b354	0.04338391
196	0x3bf02819	0.0073289988
197	0xbd04556d	-0.03230803
198	0x3c3a4585	0.011369114
199	0x3d161e7e	0.036650173
200	0xbbb80009	-0.0056152386
201	0xbcaa387d	-0.020778889
202	0x3d7f7afd	0.06237315
203	0x3c326f11	0.010890738
204	0x3da85c53	0.082207344
205	0xbcfc0c92	-0.030767713
206	0x3ca53408	0.020166412
207	0x3d2f444f	0.042789754
208	0x3d7e2453	0.06204636
209	0x3cf97bdf	0.030454574
210	0xbc67f8d9	-0.014158451
211	0xbc94887e	-0.01813149
212	0x3c868428	0.016420439
213	0xbd79b6b5	-0.06096526
214	0xbd0caa9b	-0.03434239
215	0x3d068570	0.0328421
216	0x3bd4506f	0.006479315
217	0x3d2b17f4	0.04177089
218	0xbdaf4151	-0.0855738
219	0xbb9c2f27	-0.004766363
220	0x3ac900e0	0.0015335344
221	0x3c717bc2	0.014738979
222	0xbccd815e	-0.025086101
223	0x3d06d25d	0.03291546
224	0x3dbd68fb	0.09248539
225	0x3cc0da6b	0.02354165
226	0xbd18f7f7	-0.037345853
227	0x3d61468e	0.054998927
228	0xbd20de3b	-0.039274435
229	0x3c888c36	0.01666842
230	0x3d7b2cfc	0.061322197
231	0x3cac341d	0.021020943
232	0xbbcdf09b	-0.006284786
233	0xbd3aff68	-0.04565373
234	0x3d30b76e	0.043143682
235	0x3d55092a	0.052010693
236	0x3b7c5301	0.0038501623
237	0xbd1fbac3	-0.03899647
238	0x3d0c3b76	0.034236394
239	0x3d9fd0ab	0.07803472
240	0xbb22d13d	-0.0024843954
241	0x3d9282c2	0.07153846
242	0xbaf84fb0	-0.0018944647
243	0xbd17cb0b	-0.03705887
244	0xbd379a26	-0.04482474
245	0x3b9a3ac9	0.004706715
246	0xbc6fe492	-0.014641898
247	0x3d800d54	0.06252542
248	0xbb132f9c	-0.0022458797
249	0x3c69432d	0.014237207
250	0xbcbbde23	-0.022933071
251	0x3d042305	0.03225996
252	0x3d1e9c51	0.038723294
253	0xbd0feba4	-0.035136834
254	0x3d145460	0.03621328
255	0x3d8a7439	0.06760449

fc3.weight f4 [256, 256]
0	0xbb9c180f	-0.00476361
1	0x3bc0cfb9	0.0058841375
2	0x3bc00360	0.0058597773
3	0xbd6680b1	-0.056275073
4	0x3c089538	0.008336358
5	0x3d0247d0	0.031806767
6	0x3c1d759d	0.009610561
7	0x3c97d772	0.01853535
8	0xbc729d2e	-0.014807982
9	0x3d7195ea	0.05898086
10	0xbd532e7e	-0.05155801
11	0x3d20efd0	0.039291203
12	0xbc4dbaa0	-0.012556702
13	0xbd5951eb	-0.05305664
14	0xbe1c2465	-0.15248258
15	0x3d56cbba	0.052440383
16	0x3cd54841	0.02603543
17	0xbc80f314	-0.015740909
18	0x3a553fa7	0.000813479
19	0xbd5fd3ee	-0.05464547
20	0xbd39cc94	-0.045361117
21	0xbcb6622c	-0.022263609
22	0xbd5a4fa6	-0.053298615
23	0x3d054e24	0.032545224
24	0x3db758bf	0.08952474
25	0xbc74bfe1	-0.014938326
26	0x3d14ba69	0.036310587
27	0xbd85f170	-0.06540191
28	0xbd3b3866	-0.045708083
29	0x3c7d9788	0.015478022
30	0x3d897f96	0.06713788
31	0x3cc8065f	0.0244171
32	0xbb6a2c05	-0.0035731804
33	0x3bacba67	0.0052712443
34	0x3d60e8aa	0.054909386
35	0x3cfe697d	0.03105616
36	0xbc8540cc	-0.01626625
37	0x3d224dd2	0.039624996
38	0x3d6820d3	0.05667193
39	0xbd1103a6	-0.03540387
40	0xbb6a3e7f	-0.0035742817
41	0x3c4318bb	0.011907752
42	0x3d6c38ee	0.05767148
43	0xbc055ad7	-0.008139334
44	0xba73e220	-0.00093034096
45	0x3c0f0f0a	0.008731613
46	0x3d3e97ad	0.046531368
47	0xbd3f5538	-0.04671213
48	0xbcf9d2d8	-0.030496046
49	0x3c962924	0.018330164
50	0xbd571c52	-0.052517243
51	0x3d0b2c61	0.03397787
52	0x3d35e618	0.044408888
53	0xba710983	-0.0009194838
54	0xbcfdaa05	-0.03096486
55	0x3d6517f4	0.055931047
56	0xbcbdf83a	-0.023189653
57	0x3c9ac259	0.0188915
58	0x3d60ef4f	0.054915722
59	0xbd90e86c	-0.07075581
60	0xbc95cffd	-0.018287653
61	0xbd20b096	-0.039230905
62	0x3d3c1600	0.04591942
63	0xbb69658a	-0.00356135
64	0xbc662803	-0.0140476255
65	0xbdb9a3ab	-0.0906442
66	0x3d5105b0	0.051030815
67	0xbd3d8b1e	-0.04627525
68	0xbd2fa5f6	-0.042882882
69	0x3d498ed5	0.04920848
70	0xbd8895f5	-0.06669227
71	0x3c14090b	0.009035359
72	0xbd296961	-0.041360263
73	0x3d447de8	0.047971636
74	0x3c8bb4cc	0.017053984
75	0xbb123b9e	-0.0022313367
76	0xbbdd9d2c	-0.006763121
77	0x3d0d75ad	0.034536052
78	0xbd338e99	-0.043837164
79	0x3d997baf	0.07494294
80	0xbae712c2	-0.0017629492
81	0xbd66e5d2	-0.056371517
82	0xbd635d5a	-0.05550895
83	0xbce8cc36	-0.028417688
84	0x3b949b10	0.0045350865
85	0xbd53f589	-0.051747832
86	0x3dd0e985	0.1020079
87	0xbc45882a	-0.01205639
88	0x3d18efca	0.037338056
89	0xbd34f72a	-0.044181027
90	0xbc4c5ce7	-0.0124733215
91	0xbce0dcec	-0.027449094
92	0x3d457efe	0.048216812
93	0x3d14fb20	0.036372304
94	0xbb6c6261	-0.003606938
95	0xbd2d98de	-0.042382114
96	0x3d27d85d	0.040977824
97	0x3d2b8dc6	0.041883253
98	0x3d129c7a	0.03579376
99	0xbc9c3934	-0.019070245
100	0x3d273725	0.040824074
101	0x3d1181de	0.03552424
102	0x3d5bb962	0.05364359
103	0x3d12e88e	0.035866313
104	0xbcb379ee	-0.021908727
105	0x3d182a05	0.037149448
106	0xbbc4b238	-0.0060026906
107	0x3bbe7671	0.005812459
108	0xbbc651cb	-0.006052231
109	0xbde9abbf	-0.11409711
110	0xbd55c4b5	-0.052189548
111	0x3c93cf0e	0.018043067
112	0x3d53da41	0.051721815
113	0x3d1ee7a3	0.038795125
114	0xbc036a9c	-0.008021023
115	0x3cb3cbc7	0.021947755
116	0x3c1643cd	0.009171438
117	0x3dbf0917	0.093279056
118	0xbd33283a	-0.043739535
119	0x3dda210f	0.10650837
120	0xbd9d26be	-0.07673405
121	0xbd6fb039	-0.05851767
122	0xbdda03ab	-0.10645231
123	0xbccc85cc	-0.024966143
124	0x3c3df30b	0.0115935905
125	0x3d94d586	0.07267289
126	0x3d2e2d6d	0.04252379
127	0x3cb2da04	0.021832474
128	0xbb816570	-0.00394886
129	0xbd037e0e	-0.032102637
130	0x3d72a035	0.059234817
131	0x3d053cda	0.032528736
132	0xb951e599	-0.00020017325
133	0x3d506835	0.05088063
134	0x3d0e828c	0.034792468
135	0x3d06429b	0.032778364
136	0xbd30a55e	-0.043126456
137	0xbddd712d	-0.10812602
138	0x3c899d00	0.016798496
139	0xbdc38d57	-0.09548443
140	0x3d6cbc1f	0.057796594
141	0x3ac74a00	0.0015204549
142	0xbcb5ffe6	-0.022216748
143	0x3ce6301c	0.028099112
144	0x3da878ff	0.08226203
145	0x3ccfdf40	0.025375009
146	0xbceef203	-0.029168135
147	0x3bb19330	0.0054191574
148	0x3ad8dc04	0.0016545062
149	0xbc050510	-0.008118883
150	0x3c4f2d76	0.012645116
151	0x3d87be4b	0.066280924
152	0x39a506d2	0.00031476334
153	0xbd7d25fc	-0.061803803
154	0x3dc5b98a	0.096545294
155	0x3d02df13	0.03195102
156	0xbd6aeaac	-0.057352707
157	0x3d6b110c	0.057389304
158	0xbcee0214	-0.029053725
159	0x3d437be8	0.047725588
160	0x3d26754a	0.0406392
161	0x3d066478	0.03281066
162	0xbcd6d13c	-0.026222818
163	0x3cf58768	0.029971793
164	0xbd3d9bd4	-0.046291187
165	0xbb080344	-0.00207539
166	0x3d6ec588	0.05829385
167	0xbd7a3804	-0.061088577
168	0x3c619de7	0.013770557
169	0xbd665e1f	-0.056242105
170	0x3d219cf5	0.039456327
171	0xbd2942bb	-0.041323405
172	0x3ca0094c	0.019535683
173	0xbc6f4e06	-0.014606005
174	0x3ca7c268	0.020478442
175	0x3d40b8f1	0.047051374
176	0x3d1987a6	0.03748288
177	0xbc56e39a	-0.013115788
178	0xbd565139	-0.052323554
179	0xbc8c0d32	-0.017096136
180	0x3d6dcd8f	0.058057364
181	0xbda57ea0	-0.080807924
182	0xbcba6c94	-0.022756852
183	0xbcbb6e24	-0.022879668
184	0x3d6da3b7	0.05801746
185	0x3d674f25	0.056471962
186	0xbcdb5213	-0.026772534
187	0xbc2a304a	-0.01038749
188	0xbd9f0bfd	-0.077659585
189	0xbbca3d22	-0.0061718384
190	0xbc13b8ef	-0.00901626
191	0xbd29f488	-0.04149297
192	0x3d55e0a3	0.052216183
193	0x3ddfa95b	0.10920974
194	0x3d4a41a9	0.049379025
195	0xbddfd514	-0.10929313
196	0xbcc42849	-0.02394499
197	0xbd1aaa20	-0.0377599
198	0x3c9b1707	0.018931879
199	0xbbcf3075	-0.006322915
200	0x3d3bb0ae	0.04582279
201	0x3da0b163	0.07846334
202	0xbd99d901	-0.07512093
203	0x3d8fc2b5	0.07019559
204	0x3d23f71c	0.040030584
205	0x3dc165a0	0.094432116
206	0x3ba491f6	0.0050222827
207	0xbd408fc7	-0.047012117
208	0x3b83ec50	0.0040259734
209	0x3d56fcc7	0.05248716
210	0xbcb5465c	-0.022128277
211	0x3de7ef5f	0.11324953
212	0x3bd191f0	0.006395571
213	0xbb79aee0	-0.0038098618
214	0x3c1777e8	0.0092448965
215	0xbda4fbb4	-0.08055821
216	0xbd609e74	-0.054838613
217	0x3d29f5bd	0.04149412
218	0x3d08e241	0.033418898
219	0xbc10b24b	-0.008831571
220	0x3bf6f54b	0.0075365654
221	0x3d7c764b	0.06163625
222	0xbe08d842	-0.13363746
223	0x3d0a0840	0.033699274
224	0xbdcdafd6	-0.10043304
225	0xbcc111a8	-0.02356799
226	0xbd696a58	-0.056986183
227	0x3d987819	0.07444782
228	0xbcfa15d3	-0.030527985
229	0xbc11df41	-0.008903326
230	0x3d4d4afc	0.05012034
231	0xbc14504b	-0.009052346
232	0x3d0cdd29	0.034390602
233	0x3d6804da	0.05664525
234	0x3c3b26af	0.011422797
235	0x3cbfb1e3	0.023400253
236	0xbc9c3369	-0.019067483
237	0xb9f6d697	-0.00047080658
238	0xbb94d210	-0.004541643
239	0xbd9ac8e9	-0.07557852
240	0x3dcac188	0.099001944
241	0x3ca84edb	0.020545414
242	0x3cf862c4	0.030320533
243	0xbccd55ea	-0.025065381
244	0x3cd11ba0	0.025525868
245	0xbcad18b0	-0.021129936
246	0xbbde1fc0	-0.0067786872
247	0xbe3dbdf3	-0.18529491
248	0xbbf44eba	-0.007455674
249	0xbd594107	-0.05304053
250	0x3c87807c	0.016540758
251	0x3dd5ff57	0.10449093
252	0x3d30d1c2	0.04316879
253	0x3c79184c	0.015203547
254	0x3d49032d	0.049075294
255	0xbb303abe	-0.0026890482

fc3.bias f4 [256]
0	0xbce22684	-0.027606256
1	0x3d0989b8	0.033578604
2	0xbc96a45b	-0.018388918
3	0x3d014567	0.031560328
4	0xbcf2b483	-0.02962709
5	0x3a5ecb16	0.000849889
6	0xbb42e157	-0.0029736364
7	0x3d5e5b4a	0.05428628
8	0xbcf66c8b	-0.030081054
9	0xbd318805	-0.04334261
10	0xbcbd3132	-0.023094747
11	0x3b530d55	0.0032203991
12	0x3d671c19	0.05642328
13	0x3d4119ae	0.04714363
14	0x3d08a3be	0.03335928
15	0x3cde560e	0.027140643
16	0x3d7057b3	0.058677386
17	0x3d7d550a	0.061848678
18	0x3cf0021c	0.02929788
19	0xbcb4b163	-0.02205724
20	0x3cb03b91	0.021512778
21	0x3c5e0e6a	0.013553241
22	0xbd4ffc59	-0.050777767
23	0x3c41b55e	0.011823026
24	0xbd888142	-0.06665279
25	0x3df548c8	0.119767725
26	0x3d67098f	0.0564056
27	0x3c977df0	0.018492669
28	0xbd38f1eb	-0.045152586
29	0xbccb2496	-0.024797719
30	0x3d1c0209	0.03808788
31	0x3d400263	0.046877276
32	0xbd868f08	-0.0657025
33	0xbc713799	-0.014722728
34	0x3d5da100	0.05410862
35	0xbbe82c29	-0.0070853424
36	0x3b632633	0.003466022
37	0x3c02a6f6	0.007974377
38	0xbd25a21b	-0.0404378
39	0x3d0ce5bc	0.03439878
40	0x3d8a1f72	0.06744279
41	0xbc95e479	-0.01829742
42	0x3c00b71f	0.0078561595
43	0x3ca0f31d	0.019647175
44	0x3cd75021	0.026283326
45	0x3daa3a32	0.08311881
46	0x3c395ef0	0.011314139
47	0x3ced67c4	0.028980143
48	0x3d179fb0	0.037017524
49	0xbce993de	-0.028512891
50	0xbd14c51e	-0.036320798
51	0xbd9bcaba	-0.076070264
52	0x3bcadfd8	0.006191235
53	0x3d707e48	0.05871418
54	0xbbb9b3e6	-0.0056671975
55	0x3d5f8922	0.05457414
56	0xbd83346d	-0.06406484
57	0xbd8d5faf	-0.06903016
58	0xbc77e26a	-0.015129665
59	0x3d1c9ac0	0.03823352
60	0x3d5def90	0.054183543
61	0x3db5d8e2	0.08879258
62	0xbae2dea7	-0.0017308787
63	0xbd78e937	-0.060769286
64	0x3cbf57f7	0.023357375
65	0x3d9155fd	0.07096479
66	0xbd814ee1	-0.06313873
67	0x3cdad9e5	0.026715228
68	0xbd910164	-0.07080343
69	0x3cb687c2	0.022281531
70	0xbd84eecf	-0.064908616
71	0x3d06e52e	0.032933407
72	0x3ce22ab7	0.027608259
73	0x3d289640	0.041158915
74	0x3b628f07	0.0034570114
75	0x3d921bc0	0.07134199
76	0xbd2b373c	-0.041800722
77	0xb8caa196	-9.662208e-05
78	0xbd33b4d4	-0.043873623
79	0xbcdf04dd	-0.027223999
80	0x3d18dee1	0.03732193
81	0x3bb21460	0.005434558
82	0xbc02f9a2	-0.007994087
83	0x3c523e9b	0.012832309
84	0xbd5e8d29	-0.05433384
85	0xbc24d490	-0.0100604445
86	0x3d793912	0.060845442
87	0xbd368f73	-0.044570398
88	0xbd2f5b26	-0.042811535
89	0xbbe66493	-0.0070310323
90	0x3c13d68e	0.009023322
91	0xbd4a7136	-0.049424373
92	0xbbcf086b	-0.006318142
93	0x3ccc9c2e	0.024976816
94	0x3dc6f251	0.09714187
95	0x3c1df006	0.009639746
96	0x3d108dbb	0.035291415
97	0x3d42c309	0.04754928
98	0x3bbdd31a	0.0057929875
99	0xbcd633e4	-0.02614779
100	0x3c8ff94b	0.017574927
101	0xbca92600	-0.020648003
102	0x3d0e1372	0.034686513
103	0xbcc03667	-0.023463441
104	0x3d3059c6	0.043054365
105	0xbd462226	-0.04837241
106	0xbd691027	-0.05690017
107	0xbd1d195e	-0.03835427
108	0x3dabf157	0.08395641
109	0xbd221768	-0.039573103
110	0x3d98b6c9	0.074567385
111	0x3cf6b265	0.030114362
112	0x3c8de010	0.017318755
113	0xbc6f6438	-0.014611296
114	0xbd486860	-0.048927665
115	0x3c95fcf1	0.018309088
116	0x3b9fe29c	0.004879309
117	0xbc03fd61	-0.008056016
118	0xbbfcc4b0	-0.0077138767
119	0xbceda419	-0.029008912
120	0x3c530634	0.012879897
121	0xbc150f50	-0.009097889
122	0x3d89ef9c	0.06735155
123	0xbd0d27ea	-0.034461893
124	0xbd8de5a3	-0.06928565
125	0x3d4e3f69	0.05035344
126	0xbd839bf1	-0.06426228
127	0x3d6cc431	0.05780429
128	0x3be1ced9	0.0068911132
129	0x3c8c4f60	0.017127693
130	0xbcaa8074	-0.020813204
131	0xbd3084ff	-0.043095585
132	0xbbeb0106	-0.007171753
133	0xbb7f6bdd	-0.0038974204
134	0x3d13972e	0.036032848
135	0x3d34e3a6	0.044162415
136	0xbd1bcaea	-0.03803531
137	0xbd99916c	-0.0749844
138	0xbcbbb60f	-0.02291396
139	0xbb8f3597	-0.004370402
140	0xbbdfb59a	-0.0068270685
141	0xbd9e3180	-0.07724285
142	0xbd328610	-0.043584883
143	0xbcc4ec4b	-0.024038455
144	0xbd881f73	-0.066466235
145	0xbceb0901	-0.028690817
146	0xbc96bc17	-0.018400235
147	0x3b00de03	0.001966358
148	0x3ce093bb	0.027414193
149	0xbd9297b3	-0.071578406
150	0x3d1c65ba	0.03818295
151	0x3d26f7a8	0.040763527
152	0xbd4b4316	-0.049624525
153	0xbd33109a	-0.043717004
154	0x3cf03062	0.029319946
155	0xbc7ec1e7	-0.01554916
156	0x3c4ac4d2	0.012376027
157	0xbcaf1ab8	-0.021375045
158	0xbc85a577	-0.016314251
159	0xbd5b86bb	-0.053595286
160	0x3d2d8a9e	0.042368524
161	0x3c097a71	0.008391009
162	0x3d5b97f6	0.053611718
163	0x3d1e9f2d	0.03872602
164	0xbb3bd7ce	-0.0028662565
165	0x3cbe5454	0.02323357
166	0xbb683798	-0.0035433527
167	0x3a9a106a	0.0011754159
168	0xbd67113c	-0.05641292
169	0x3b1fd505	0.0024388444
170	0x3c2e98b5	0.010656525
171	0x3c887580	0.01665759
172	0x3c8373f0	0.016046494
173	0x3d794982	0.06086112
174	0xbd21ce68	-0.039503485
175	0xbc7ec376	-0.015549531
176	0xbb53cca7	-0.0032318027
177	0x3cee6c5c	0.029104404
178	0x3c34b7c3	0.01103014
179	0xbd4f00e3	-0.050537955
180	0xbd658454	-0.0560344
181	0xbc727210	-0.014797702
182	0x3c56b390	0.0131043345
183	0xbd5acb0e	-0.053416304
184	0xbd1df1f5	-0.038560826
185	0x3c565337	0.013081363
186	0x3d8152f9	0.06314654
187	0x3c850c2e	0.01624116
188	0xbbd690bb	-0.006548015
189	0xbd245b01	-0.04012585
190	0x3c19d99f	0.009390264
191	0xbc56e273	-0.013115513
192	0x3bcbdccf	0.006221391
193	0x39f22293	0.00046183597
194	0x3c628168	0.013824798
195	0xbcbb10ae	-0.022835102
196	0xbd90dbc7	-0.07073169
197	0xbd0cf29a	-0.03441105
198	0x3bbd03f3	0.005768293
199	0xbcd859c6	-0.026409995
200	0x3b3d9957	0.002893051
201	0x3ccee939	0.025257694
202	0xbd14791b	-0.036248308
203	0x3d1c1b6e	0.038112096
204	0xbc071ac4	-0.0082461275
205	0x3d06b8b7	0.032891
206	0xbd35d588	-0.044393092
207	0x3d5bb38e	0.053638034
208	0xbd2d0d6f	-0.04224914
209	0x3da82287	0.082097106
210	0x3d4c1c4c	0.049831674
211	0x3d99318f	0.07480156
212	0x3d11f588	0.035634547
213	0xbb804d2b	-0.003915449
214	0xbd577896	-0.052605234
215	0xbc0f16fd	-0.008733508
216	0x3cefd221	0.029275002
217	0xbd4cf0fd	-0.05003451
218	0x3daa60bb	0.08319231
219	0xbcc4f404	-0.024042137
220	0x3d02450c	0.03180413
221	0xbaa547a4	-0.0012609852
222	0x3c92940e	0.017892864
223	0x3c83f746	0.01610912
224	0x3caa552a	0.020792563
225	0xbc4f4615	-0.012650986
226	0xbd842845	-0.06452993
227	0xbd865bef	-0.06560504
228	0xb8dcb761	-0.000105245745
229	0x3d4bd621	0.049764756
230	0x3d4b3594	0.049611643
231	0x3cdc20e8	0.02687116
232	0x3d443ae8	0.04790774
233	0x3c841688	0.016124025
234	0xbd7e72c2	-0.06212116
235	0x3b506ab3	0.003180188
236	0x3d1caa28	0.03824821
237	0x3bc22285	0.005924525
238	0x3d0c6c71	0.034283105
239	0xbcaa232d	-0.020768726
240	0xbd181401	-0.037128452
241	0xbcd588b5	-0.026066164
242	0x3c72da8b	0.0148226125
243	0x3b930f09	0.0044878763
244	0x3cc14641	0.02359307
245	0xbc97cd62	-0.018530551
246	0xbd57c5e7	-0.05267897
247	0xbcbd53aa	-0.023111183
248	0xbc824106	-0.015900146
249	0xbcf017aa	-0.029308159
250	0x3cbb08de	0.022831377
251	0x3d617d5d	0.055051196
252	0x3d59c902	0.05317021
253	0xbd482b67	-0.048869517
254	0x3d64adfa	0.05582998
255	0xbcf949bb	-0.030430665

fc4.weight f4 [2, 256]
0	0x3ca4d589	0.020121353
1	0xbb8b1a92	-0.004245111
2	0x3d8c7041	0.06857348
3	0xbcda2a1d	-0.02663141
4	0xbdbf6ed6	-0.09347312
5	0x3e0d3819	0.13790931
6	0xbd4e4663	-0.050360095
7	0x3da96d32	0.082727805
8	0x3df7792b	0.12083658
9	0x3cf6f465	0.030145833
10	0x3d35dbc8	0.044399053
11	0xbdcb9131	-0.099398024
12	0x3dc298a4	0.0950177
13	0x3d854211	0.06506742
14	0x3dc9198b	0.09819325
15	0x3ddfb045	0.109222926
16	0xbdc66b1f	-0.096884005
17	0x3e21eeec	0.15813798
18	0xbc312f1c	-0.010814454
19	0x3b0891a9	0.0020838773
20	0xbd80d721	-0.062910326
21	0xbe0d4110	-0.1379435
22	0x3c589e68	0.013221361
23	0xbd95c309	-0.07312591
24	0xbdbc91ad	-0.09207473
25	0x3de5b8b9	0.11216874
26	0x3e19f50e	0.15034887
27	0x3d387c5f	0.045040485
28	0x3c77df15	0.0151288705
29	0x3d9166a5	0.07099656
30	0xbde8cee9	-0.1136759
31	0x3d620a81	0.0551858
32	0x3cdbba95	0.026822368
33	0xbd584e5e	-0.05280911
34	0x3dde7515	0.108621754
35	0x3e250a89	0.161173
36	0xbb074a69	-0.0020643717
37	0xbcd7c4d4	-0.026338972
38	0xbd77cc15	-0.060497362
39	0xbbd2ef3c	-0.0064372104
40	0x3e0566cd	0.13027497
41	0xbd0d727f	-0.03453302
42	0xbc7433e6	-0.014904952
43	0x3ce30af6	0.027715188
44	0xbceb625d	-0.028733427
45	0x3e0d5865	0.13803251
46	0xbd8558c8	-0.06511074
47	0x3ded5be6	0.11589794
48	0xbcdc435e	-0.026887592
49	0xbc8c5a16	-0.0171328
50	0xbd86f9e9	-0.06590635
51	0xbd0636a9	-0.03276697
52	0xbd82fda0	-0.063960314
53	0x3d62b46d	0.05534785
54	0x3e063d61	0.13109352
55	0x3def1a87	0.116749816
56	0x3d6a3467	0.05717888
57	0xbddfe46c	-0.1093224
58	0x3c1468af	0.009058162
59	0x3e2af6af	0.16695665
60	0xbd8e83ac	-0.06958708
61	0x3d81cf83	0.06338408
62	0x3dc30f86	0.09524445
63	0xbc9f0fcd	-0.019416714
64	0xbd32565f	-0.0435394
65	0xbdebf23b	-0.11520811
66	0xbd3f0321	-0.046633843
67	0xbd946023	-0.07244899
68	0xbd2cbc4a	-0.042171754
69	0xbc914c1c	-0.017736487
70	0xbd4f30d0	-0.05058366
71	0x3dadfc05	0.084953345
72	0x3e1aaeed	0.15105791
73	0x3e0a69a7	0.13516866
74	0xbcbb65cc	-0.022875689
75	0x3d9f0acb	0.077657305
76	0xbd22ca35	-0.03974362
77	0x3df3bb89	0.11901004
78	0x3dbb4b7a	0.091452554
79	0x3e2b20c0	0.16711712
80	0x3d194e91	0.037428442
81	0x3b15022a	0.0022736886
82	0x3d2a9a84	0.041651264
83	0xbcb7cd06	-0.02243663
84	0xbc7db8a4	-0.015485916
85	0xbd3c94eb	-0.046040457
86	0x3df1ea76	0.11812298
87	0xbd81753a	-0.06321187
88	0xbc75449c	-0.014969971
89	0x3de55f07	0.11199766
90	0x3de2dc8d	0.11077223
91	0xbd85c44b	-0.065315805
92	0xbdca9244	-0.09891179
93	0x3d09daf3	0.033656072
94	0x3dbef19a	0.093234256
95	0x3e0504ab	0.12990062
96	0x3d6ea918	0.05826673
97	0x3d0975d1	0.033559624
98	0x3c1292b7	0.008946112
99	0xbda356fe	-0.07975577
100	0xbd813c29	-0.06310303
101	0xbd8e4934	-0.06947556
102	0x3e0324f3	0.12807064
103	0x3d31f5c6	0.04344728
104	0xbd4f09d7	-0.050546493
105	0xbd98f6c0	-0.07468939
106	0xbdab60c8	-0.08368069
107	0xbd8701ad	-0.065921165
108	0x3d2e10b4	0.042496398
109	0xbdd87ee9	-0.10571081
110	0xbdf243c5	-0.11829332
111	0xbdca4cd4	-0.09877935
112	0xbdda2d13	-0.106531285
113	0xbd51f817	-0.051261988
114	0xbd014f79	-0.03156993
115	0x3dbdd8ec	0.0926989
116	0x3df5e766	0.120070264
117	0xbd13c18f	-0.036073264
118	0x3ce2f493	0.027704513
119	0xbd082d63	-0.03324641
120	0x3d90bbb7	0.07067054
121	0xbdb7c075	-0.08972255
122	0x3e051f49	0.13000216
123	0x3d046893	0.032326292
124	0x3cf85c22	0.03031737
125	0xbd3d3f7d	-0.046203125
126	0xbcb229f3	-0.021748519
127	0x3dcc8d60	0.09987903
128	0x3ddeb0fb	0.108736
129	0xbe0ce59a	-0.13759461
130	0x3e0eec53	0.13957338
131	0xbaa3f2e3	-0.0012508299
132	0xbc540650	-0.012940958
133	0x3d91fcc5	0.0712829
134	0x3d9e40ea	0.07727225
135	0x3e0d0886	0.13772783
136	0x3d4cd9a3	0.050012242
137	0xbc760e75	-0.015018095
138	0xbd14a9d5	-0.036294777
139	0x3defc9ca	0.1170841
140	0x3e26bf29	0.1628386
141	0x3d1f283f	0.03885674
142	0xbd8330e6	-0.06405811
143	0x3d1f2952	0.038857765
144	0x3c85b565	0.016321847
145	0x3d263134	0.040574268
146	0x3cb17f49	0.02166714
147	0xbd8b1037	-0.06790202
148	0x3e007da7	0.12547933
149	0xbd51c120	-0.05120957
150	0xbd5dddb3	-0.054166507
151	0x3da42968	0.0801571
152	0xbc4976a9	-0.012296357
153	0xbdc35acb	-0.09538802
154	0x3e0a564d	0.13509484
155	0xbaa61ed7	-0.0012673986
156	0x3d9fea73	0.078083895
157	0xbc8f13cf	-0.0174655
158	0x3d666e6e	0.056257658
159	0x3d238869	0.039925013
160	0x3dd1e1c3	0.10248139
161	0xbd521b03	-0.05129529
162	0x3da5f91c	0.081041545
163	0x3d17fce2	0.037106402
164	0x3d824e10	0.063625455
165	0x3e0b9a76	0.13633141
166	0xbdd9eae7	-0.10640507
167	0x3c202492	0.009774344
168	0xbdb66ad6	-0.08907096
169	0x3d12f412	0.035877295
170	0x3d53ce15	0.051710207
171	0xbd1f4cb9	-0.038891528
172	0xbd906822	-0.07051112
173	0x3de28aa2	0.11061598
174	0x3d67b75c	0.05657135
175	0xbcd3df81	-0.02586341
176	0x3dec00cd	0.1152359
177	0x3c86ab7c	0.016439192
178	0x3e0ad5c3	0.13558106
179	0xbc7168b7	-0.014734439
180	0xbd97f6cc	-0.0742012
181	0x3d45639a	0.04819069
182	0xbdb91664	-0.09037474
183	0xbc48aad9	-0.0122477645
184	0x3c3c8963	0.011507365
185	0x3d12aa71	0.035807077
186	0x3d9d6b3a	0.076864675
187	0x3e07cf39	0.13262643
188	0xbd448a54	-0.047983482
189	0xbcc691ca	-0.02423944
190	0xbd2eb134	-0.042649463
191	0x3d8a7c97	0.06762045
192	0xbc260984	-0.010134105
193	0xbd4e1e28	-0.050321728
194	0xbd823237	-0.06357234
195	0x3b3b6195	0.00285921
196	0x3d0cc6f1	0.034369413
197	0xbd6d8d4f	-0.05799609
198	0x3e0b8746	0.13625821
199	0x3e238e50	0.15972257
200	0x3e168226	0.14698085
201	0xbc907ed2	-0.017638598
202	0x3c8d5525	0.017252514
203	0x3db69850	0.0891577
204	0x3d8620c4	0.06549218
205	0x3ca20287	0.019776596
206	0xbcc6ace8	-0.02425237
207	0xbd81ca4a	-0.06337412
208	0xbd86e008	-0.06585699
209	0x3e182f2c	0.14861745
210	0x3db30dbf	0.08742856
211	0xbe45cb51	-0.1931584
212	0x3e13f7e3	0.1445003
213	0xbb01c1a0	-0.0019799247
214	0x3d1c70de	0.038193576
215	0xbcb43530	-0.021998018
216	0xbddcd7a8	-0.10783321
217	0xbdc4966a	-0.09599002
218	0x3e17a5ae	0.14809296
219	0x3e01c5de	0.12673137
220	0xbdd2001d	-0.10253928
221	0x3cd83d58	0.026396438
222	0x3e2c3ac2	0.1681929
223	0xbdf317cf	-0.118697755
224	0xb98f0c5a	-0.00027284288
225	0x3db26220	0.08710122
226	0xbbac81c8	-0.0052644946
227	0xbd3242b8	-0.04352066
228	0x3dfea680	0.12434101
229	0x3e33293e	0.17496201
230	0x3dc56527	0.09638434
231	0xbd9931cb	-0.074802004
232	0x3e1895a0	0.14900827
233	0x3e00f515	0.12593491
234	0xbd4ee9f6	-0.05051609
235	0xbdeeb2c4	-0.116551906
236	0x3e267f3e	0.16259477
237	0xbb6987aa	-0.003563384
238	0x3e135710	0.1438868
239	0x3df7c1e1	0.12097526
240	0xbd97ce69	-0.074124165
241	0xbdb1df5f	-0.08685183
242	0x3dbaab66	0.09114723
243	0x3d70bd9a	0.05877457
244	0xbd7a4499	-0.061100576
245	0x3dd2423f	0.10266542
246	0x3b903fea	0.0044021504
247	0x3ddac05a	0.106812194
248	0x3c832c6d	0.016012395
249	0x3d4f9102	0.0506754
250	0xbd14ca92	-0.036326
251	0x3ddbe1bf	0.10736417
252	0x3df788d1	0.120866425
253	0x3d14acb5	0.03629752
254	0x3e044391	0.129164
255	0x3c5d2420	0.013497382

fc4.bias f4 [2]
0	0x3b2094d8	0.002450278
1	0xbcaf67fb	-0.021411886
