Task_3/model_weights/critic.pth (torch, 535423 bytes, 7 tensors)

fc1.weight f4 [256, 4]
0	0x3e1e5711	0.154629
1	0x3e814259	0.25245932
2	0x3edcd7eb	0.43133482
3	0xbe419054	-0.18902713
4	0xbdeb6881	-0.11494542
5	0xbe43eaa6	-0.1913248
6	0xbd174f3d	-0.036940802
7	0x3ebc6ba6	0.3680088
8	0xbe0f279d	-0.13979955
9	0xbec84deb	-0.39121947
10	0x3d4b37da	0.04961381
11	0x3e79dfa9	0.24401726
12	0xbec1238f	-0.37722442
13	0xbea73c51	-0.32663205
14	0x3e75ff63	0.24023204
15	0x3e175ae0	0.1478076
16	0xbe926f4c	-0.28600538
17	0xbefe8213	-0.49708614
18	0x3d39660f	0.045263346
19	0x3e7ba37c	0.24574083
20	0xbe4c671f	-0.19961213
21	0x3e6727f1	0.2257383
22	0x3f06c64d	0.5264633
23	0x3edf082f	0.4356093
24	0x3e744e03	0.23857884
25	0x3cc06179	0.023483979
26	0xbf17781f	-0.59167665
27	0xbecf4dc2	-0.40489012
28	0x3d550cb5	0.05201407
29	0x3ef18689	0.47172955
30	0x3dc932db	0.09824153
31	0x3e866a22	0.26252848
32	0x3e99fb71	0.30074647
33	0xbd9e0d6b	-0.07717403
34	0x3dd28702	0.10279657
35	0x3e627e9c	0.2211861
36	0x3dba5154	0.09097543
37	0xbdea5971	-0.11442841
38	0xbed3d306	-0.41371936
39	0x3efaddf6	0.48997468
40	0xbe470499	-0.19435348
41	0xbea4ee1b	-0.3221291
42	0xbedbbb25	-0.42916217
43	0x3e05f5ab	0.13081996
44	0x3e7dd87b	0.24789612
45	0x3ef62353	0.48073825
46	0x3da34bb9	0.07973427
47	0xbe7c4cbb	-0.24638645
48	0xbdc465cd	-0.095897295
49	0x3c64b313	0.01395871
50	0xbc189529	-0.009312906
51	0xbebc08e4	-0.36725533
52	0x3e9b28ba	0.3030451
53	0x3e6cd819	0.2312931
54	0x3e5befec	0.21478242
55	0xbec5a429	-0.38601807
56	0x3e7a5bb0	0.24449039
57	0xbd3a8a36	-0.045541964
58	0x3e84c34b	0.25930247
59	0xbee649f5	-0.449783
60	0xbe0c21bf	-0.13684748
61	0xbea94834	-0.330629
62	0xbe1bcb1f	-0.15214203
63	0x3e29e741	0.16592123
64	0xbf09f0af	-0.5388288
65	0x3e812eb7	0.25230953
66	0xbece9141	-0.40345195
67	0x3eae2430	0.34011984
68	0xbeeba8f1	-0.4602733
69	0x3ef88e30	0.4854598
70	0x3e8d19fd	0.2755889
71	0x3dd55169	0.104159184
72	0x3c97605b	0.018478563
73	0x3d6d351d	0.05791198
74	0xbe45ca7f	-0.19315527
75	0xbe869e72	-0.2629276
76	0xbeec8649	-0.461962
77	0x3ed19cad	0.40939847
78	0x3e239b55	0.15977223
79	0x3eb49ac5	0.3527433
80	0xbdc1a7fa	-0.09455867
81	0xbe912eb0	-0.28355932
82	0xbdcc8c1e	-0.09987663
83	0x3d803d5c	0.06261703
84	0xbe060032	-0.13086012
85	0x3c89d798	0.016826436
86	0xbd80ba04	-0.0628548
87	0x3ee63d2c	0.44968545
88	0xbec80cde	-0.39072317
89	0x3e2407a7	0.16018544
90	0x3efd3177	0.494518
91	0x3eec3bab	0.46139273
92	0xbf04377b	-0.51647156
93	0xbe9841dc	-0.29737747
94	0xbd4e5927	-0.05037799
95	0xbe928bc8	-0.2862227
96	0xbedf0dbb	-0.43565163
97	0xbe8cbc9a	-0.27487642
98	0xbe89b50e	-0.26895946
99	0xbe8faa03	-0.28059396
100	0x3d9ed7f7	0.07756036
101	0xbf1bfbb7	-0.6093096
102	0xbecfe3bf	-0.40603444
103	0xbeceecb8	-0.40414977
104	0xbe966ff3	-0.29382285
105	0x3e4fe322	0.20301488
106	0xbdf360e3	-0.11883714
107	0xbddea6cc	-0.10871658
108	0x3eaca4af	0.33719394
109	0x3e9e32d9	0.3089817
110	0x3ee0e4e9	0.43924645
111	0xbd6f6648	-0.058447152
112	0x3eed5389	0.46352795
113	0xbede2b10	-0.4339223
114	0x3d166a91	0.036722723
115	0x3ec945af	0.39310977
116	0xbe2460ae	-0.16052505
117	0xbec372c3	-0.38173494
118	0xbed5b8fd	-0.41742697
119	0xbe949aff	-0.29024503
120	0x3dce5c98	0.100762546
121	0xbdadc0d8	-0.08484048
122	0xbdbf4f88	-0.09341341
123	0xbd9f3708	-0.07774168
124	0xbeeb8b1b	-0.46004567
125	0xbef34ab3	-0.47517928
126	0xbd1668fe	-0.036721222
127	0x392e875a	0.00016644355
128	0x3ed7dfa9	0.42162827
129	0xbe9eb98d	-0.3100094
130	0xbe4f9a92	-0.20273808
131	0x3ed5355e	0.41642278
132	0x3e4dfa01	0.201149
133	0xbe09f074	-0.13470632
134	0xbecd369d	-0.4008073
135	0xbd32f58a	-0.043691196
136	0x3ef533b0	0.47890997
137	0x3e01d3d7	0.12678467
138	0x3e9c8dd3	0.30576953
139	0xbe811b7e	-0.25216287
140	0xbeaa2a7f	-0.33235547
141	0xbeb5d7be	-0.3551616
142	0xbeaf332a	-0.34218723
143	0x3e588af2	0.21146753
144	0xbdf7b9d8	-0.12095994
145	0x3e445e81	0.19176675
146	0xbd93810c	-0.07202348
147	0x3d0c98d3	0.034325432
148	0xbdae53b6	-0.0851206
149	0x3e68a3e4	0.2271877
150	0xbe40bec9	-0.18822779
151	0xbeb62108	-0.35572076
152	0xbea9ca85	-0.33162323
153	0x3e3ca124	0.18420845
154	0xbea70536	-0.32621163
155	0xbd3cbe33	-0.046079826
156	0x3ee5c89a	0.4487961
157	0xbec298aa	-0.38007098
158	0xbeb56072	-0.35425144
159	0x3e69b124	0.2282148
160	0x3e939ae2	0.28829104
161	0xbe52ece6	-0.20598182
162	0x3e8592e5	0.26088634
163	0xbdb75e15	-0.089534916
164	0xbeed8485	-0.46390167
165	0xbe6baf39	-0.23016061
166	0xbe812cc6	-0.25229472
167	0xbe741eff	-0.23839949
168	0xbdbe7c5f	-0.09301066
169	0x3bfc4924	0.0076991487
170	0xbdf3fc61	-0.11913372
171	0xbe6a9ecf	-0.22912143
172	0x3eafcf7f	0.34337994
173	0x3e5eefbc	0.21771139
174	0xbed28b28	-0.41121793
175	0x3e0d73de	0.13813731
176	0xbdc22b3a	-0.09480901
177	0x3ef5a08b	0.47974047
178	0x3dfb5bb2	0.12273349
179	0xbeb4268c	-0.3518566
180	0xbe1d6110	-0.15369058
181	0x3e826792	0.25469643
182	0xbea83014	-0.3284918
183	0xbf08def8	-0.53465223
184	0x3dc24d27	0.09487372
185	0xbe6ec77d	-0.23318286
186	0xbe8cb153	-0.27479038
187	0xbd2d3275	-0.042284448
188	0x3e6cd240	0.23127079
189	0x3df28940	0.118425846
190	0x3bbe0106	0.005798462
191	0xbea11819	-0.31463698
192	0xbedcb8cf	-0.43109748
193	0xbed6360f	-0.41838118
194	0xbeaa332e	-0.33242172
195	0x3e75b4f7	0.23994814
196	0x3e5fd352	0.21857956
197	0xbdf9cb0b	-0.121969305
198	0xbebbb075	-0.36658064
199	0x3e98afef	0.29821727
200	0x3e93a503	0.2883683
201	0xbc87cc43	-0.016576892
202	0x3eadb03b	0.33923516
203	0xbee63edf	-0.44969842
204	0x3b108729	0.0022053218
205	0xbcd1b6f6	-0.025599938
206	0x3ee66f0f	0.45006606
207	0xbe2e2b6b	-0.1700875
208	0xbecc2d70	-0.39878416
209	0xbe7202c1	-0.23633863
210	0xbe454153	-0.192632
211	0xbe9e12af	-0.3087363
212	0xbc8c828c	-0.017152093
213	0x3ef8018e	0.48438686
214	0x3e8a723c	0.2704028
215	0x3f00e12a	0.50343573
216	0x3ec90a02	0.39265448
217	0xbe8dc331	-0.27687982
218	0xbd5d46c5	-0.05402257
219	0xbec1dad9	-0.3786228
220	0xbe6a50be	-0.22882363
221	0x3e9c5731	0.30535272
222	0x3e190ef1	0.14947106
223	0x3d8e44e5	0.06946734
224	0x3ebda0ac	0.37036645
225	0xbeb8e6b4	-0.36113513
226	0xbe4db243	-0.20087533
227	0xbebc104c	-0.36731184
228	0xbeae3702	-0.34026343
229	0x3e9bdec4	0.30443394
230	0xbe4017f7	-0.18759142
231	0x3e80116d	0.25013295
232	0xbddb87f2	-0.10719289
233	0xbd802ba4	-0.06258324
234	0x3ef6ffc5	0.48242012
235	0x3e0459b1	0.1292484
236	0xbc55ad1c	-0.013041761
237	0xbeec1358	-0.46108508
238	0xbf019234	-0.50613713
239	0xbebde3af	-0.3708777
240	0x3d845631	0.06461752
241	0xbcff0ddf	-0.031134544
242	0x3ea23966	0.31684417
243	0xbeb9b72e	-0.36272568
244	0xbd704961	-0.05866373
245	0x3a51ad94	0.00079985824
246	0x3edd365f	0.43205544
247	0xbd7a1b15	-0.061060984
248	0xbe0f4599	-0.13991393
249	0xbede3917	-0.4340293
250	0x3dbb2f03	0.09139826
251	0xbede89b0	-0.43464422
252	0x3eda9c6a	0.4269746
253	0xbe469836	-0.19394001
254	0x3ef52fa4	0.4788791
255	0xbeae1b25	-0.34005085

fc1.bias f4 [256]
0	0x3d0e5db5	0.034757335
1	0x3ec2a08a	0.38013107
2	0xbea91e88	-0.33031106
3	0x3e16f136	0.14740452
4	0xbe614de3	-0.22002368
5	0xbe8f14f3	-0.2794567
6	0x3d2c6127	0.04208484
7	0xbe2af717	-0.1669582
8	0xbd8f9d4c	-0.07012424
9	0x3e0777ee	0.13229343
10	0x3efb7627	0.4911358
11	0x3ed6c14f	0.41944358
12	0x3e1bfea9	0.15233864
13	0x3ef79d0e	0.4836201
14	0x3ef66563	0.48124227
15	0xbee9def3	-0.4567791
16	0xbd1de09d	-0.038544286
17	0x3e99895f	0.29987618
18	0x3e33d972	0.17563418
19	0x3e965ba0	0.2936678
20	0xbdccffa6	-0.100096986
21	0x3e27c44c	0.16383475
22	0x3eca068f	0.3945813
23	0x3b6574bd	0.0035012208
24	0x3bab4054	0.0052261744
25	0xbe3da680	-0.18520546
26	0xbecc2881	-0.39874652
27	0x3e62b03a	0.22137538
28	0x3f07f994	0.531152
29	0xbeb86840	-0.36017036
30	0xbef5e724	-0.4802791
31	0x3eff9d31	0.49924615
32	0xbee14e1a	-0.440049
33	0x3e2c9337	0.16853033
34	0x3f0031cc	0.50075984
35	0x3e919fd7	0.2844226
36	0x3ee528dc	0.44757736
37	0x3e8e48e0	0.27789974
38	0x3e837eee	0.25682777
39	0x3ca45df0	0.020064324
40	0x3e7d0901	0.24710466
41	0x3e30a631	0.17250897
42	0xbee82552	-0.45340973
43	0xbeac8d63	-0.3370162
44	0xbec14bc6	-0.37753123
45	0xbe758137	-0.23975073
46	0x3e1429ae	0.14469025
47	0xbeab474d	-0.33452836
48	0x3e682edb	0.22674124
49	0x3eba1424	0.3634349
50	0x3f00f705	0.5037692
51	0xbeeb6ae6	-0.45979995
52	0x3e631dda	0.22179356
53	0xbda9dd0d	-0.08294115
54	0x3e9a19be	0.30097765
55	0xbd118707	-0.035529163
56	0x3cd85989	0.026409881
57	0xbc15f361	-0.009152264
58	0x3e8ada9f	0.2711992
59	0xbe8af519	-0.2714012
60	0xbed6cd1e	-0.41953367
61	0xbe077bb0	-0.13230777
62	0xbeed2a49	-0.46321324
63	0x3eff9a3c	0.4992236
64	0xbee7d4f1	-0.4527965
65	0xbd0556e2	-0.03255356
66	0x3ebd65d8	0.36991763
67	0xbe979279	-0.29603937
68	0xbed763dc	-0.42068374
69	0x3c0ef5d9	0.008725607
70	0x3e95d33b	0.2926272
71	0xbe925050	-0.285769
72	0x3dbf80d2	0.093507424
73	0x3ce8f287	0.028435959
74	0x3ed6e347	0.41970274
75	0xbe8d0ff5	-0.27551237
76	0x3e44766a	0.19185796
77	0xbcb2a40c	-0.02180674
78	0x3f045f8c	0.5170829
79	0xbeb6a0dd	-0.35669604
80	0x3f0563b5	0.52105266
81	0xbdad8983	-0.08473494
82	0x3df4cd97	0.11953276
83	0xbede7324	-0.4344722
84	0xbc93243e	-0.017961618
85	0x3e12b9bb	0.14328663
86	0x3f0b54cc	0.54426265
87	0xbe6634e8	-0.2248112
88	0xbe928ba4	-0.28622162
89	0xbea3b2bd	-0.31972304
90	0xbe58e31c	-0.21180385
91	0xbe789770	-0.24276519
92	0xbead5707	-0.3385546
93	0xbba950fe	-0.0051671257
94	0x3e34cdca	0.17656627
95	0x3eecb02d	0.4622816
96	0x3ee6f219	0.4510658
97	0x3f0326b1	0.51230913
98	0x3df1d87a	0.11808868
99	0x3e91eb9a	0.28500062
100	0x3ec92330	0.39284658
101	0x3ef80e90	0.4844861
102	0x3d312bca	0.04325465
103	0x3e67a137	0.22620092
104	0xbdeff426	-0.117164895
105	0x3edab14b	0.4271339
106	0x3e2f1b47	0.17100249
107	0xbec80b19	-0.39070967
108	0x3e8bd39c	0.27309883
109	0x3e6326a5	0.2218271
110	0xbddeb42b	-0.10874208
111	0xbe231b15	-0.159283
112	0xbe943bfb	-0.2895201
113	0x3ebc83dd	0.36819354
114	0x3ea18879	0.31549433
115	0x3e0a23cf	0.13490222
116	0xbde9322e	-0.11386524
117	0xbe830c63	-0.25595388
118	0xbd43cc46	-0.047802232
119	0xbef43b8e	-0.47701687
120	0x3eb7734f	0.3583016
121	0xbd94f0e8	-0.07272512
122	0x3ed8798a	0.42280227
123	0x3ec7bd09	0.3901141
124	0xbe8ecf95	-0.27892748
125	0xbdfb000b	-0.122558676
126	0xbd93437a	-0.071906045
127	0xbedbdfe8	-0.42944264
128	0xbceeccc0	-0.029150367
129	0x3dbf98fa	0.0935535
130	0x3ae8facd	0.001777494
131	0xbea908fb	-0.33014664
132	0x3c829f2c	0.01594504
133	0x3ec61a15	0.38691774
134	0x3ef3f66e	0.47648948
135	0x3edfed80	0.43735886
136	0xbeb210bb	-0.3477839
137	0xbe478294	-0.19483405
138	0xbea13604	-0.31486523
139	0xbe961c03	-0.29318246
140	0xbe76401c	-0.24047893
141	0xbd963d99	-0.073359676
142	0x3e8e4e87	0.27794287
143	0xbc9e884c	-0.0193521
144	0x3ed1efc4	0.4100324
145	0x3e2f4c19	0.17118873
146	0x3e9f5dbb	0.31126198
147	0x3ef09d14	0.4699484
148	0xbd57f5b9	-0.052724574
149	0xbca810e7	-0.020515872
150	0xbd296597	-0.04135665
151	0x3e846568	0.25858617
152	0x3e2223f9	0.15834035
153	0x3e8adc81	0.27121356
154	0x3ee31263	0.44349965
155	0xbe591431	-0.21199109
156	0x3e0a60a7	0.13513432
157	0x3ef78f9a	0.48351747
158	0xbee86d12	-0.45395714
159	0x3e12b935	0.14328463
160	0x3d3c51ae	0.045976333
161	0x3e21e348	0.15809357
162	0x3d372aba	0.04471848
163	0x3f00d92e	0.5033139
164	0x3e29104e	0.16510126
165	0x3ec008ea	0.375068
166	0x3e95d0a4	0.29260743
167	0xbeb5c5fd	-0.35502616
168	0xbdcd90c4	-0.100373775
169	0xbe66dd15	-0.22545274
170	0x3ededd05	0.43528
171	0x3ea92643	0.33037004
172	0x3eadd14c	0.33948743
173	0x3ed559b5	0.41670004
174	0x3ee7c6be	0.45268816
175	0x3eca0cbe	0.39462847
176	0xbefedc2a	-0.49777347
177	0xbed45201	-0.41468814
178	0x3ef09c4a	0.4699424
179	0x3d9e3305	0.07724575
180	0x3ede4342	0.4341069
181	0x3ebc7e6a	0.36815196
182	0x3e91ec12	0.2850042
183	0x3ed7c23f	0.42140386
184	0x3ec3e614	0.38261473
185	0xbe829eb6	-0.25511712
186	0xbea4c574	-0.32181895
187	0x3ea15c30	0.31515646
188	0xbe18122a	-0.14850679
189	0x3ea0930b	0.31362185
190	0x3e4d8fcf	0.2007439
191	0xbd98559c	-0.07438204
192	0x3e52b247	0.2057582
193	0x3e2fceba	0.17168704
194	0xbe0194d0	-0.12654424
195	0xbde38437	-0.11109202
196	0x3e94765d	0.28996554
197	0xbf03bc8e	-0.51459587
198	0x3f035412	0.51300156
199	0xbe98413c	-0.2973727
200	0xbeaab699	-0.33342436
201	0x3ee56df4	0.4481045
202	0x3e46ebc4	0.19425875
203	0x3e8ceb75	0.2752339
204	0xbe9801e8	-0.29688954
205	0x3ed9ec65	0.42563167
206	0xbe732813	-0.23745756
207	0x3ead8a9e	0.3389482
208	0x3f03f62d	0.5154751
209	0xbe4c6233	-0.19959335
210	0x3e322664	0.17397457
211	0x3ef9adef	0.48765513
212	0x3eea9c05	0.45822158
213	0xbe827305	-0.25478378
214	0x3ea83a19	0.32856825
215	0x3edfbeda	0.43700296
216	0x3ed02913	0.40656337
217	0xbe355cd6	-0.17711195
218	0x3d109c04	0.035305038
219	0xbdfabfc9	-0.12243611
220	0x3e2ecf2e	0.1707122
221	0x3c4d1c11	0.012518899
222	0x3e94080d	0.28912392
223	0x3e877f54	0.2646433
224	0x3e94fa9b	0.29097447
225	0xbeba8019	-0.36425856
226	0xbcd0cbaa	-0.02548774
227	0xbcd9d8a7	-0.026592566
228	0xbd834b84	-0.06410888
229	0x3ea182f6	0.31545228
230	0x3e8f8f44	0.2803899
231	0x3e7a36a0	0.244349
232	0x3e9d00b7	0.30664608
233	0x3ae5cfe2	0.0017533267
234	0x3debd42c	0.11515078
235	0x3e25893a	0.16165629
236	0x3ed5ab0f	0.4173207
237	0xbd0b6669	-0.034033213
238	0xbdbff940	-0.093737125
239	0x3eec8f8d	0.4620327
240	0x3eccd977	0.40009663
241	0xbccc282b	-0.024921497
242	0xbe333f32	-0.17504576
243	0xbe11862f	-0.14211343
244	0x3ebf2554	0.37333167
245	0xbea0a085	-0.31372467
246	0xbf0170b2	-0.50562584
247	0xbd2986e6	-0.041388415
248	0xbd242d3e	-0.04008221
249	0x3eb2df0a	0.3493579
250	0x3df431d3	0.11923566
251	0x3e9c695c	0.30549133
252	0xbeb09439	-0.34488085
253	0xbbb7e31e	-0.0056117913
254	0x3df3c505	0.11902813
255	0xbe39198d	-0.18076153

fc2.weight f4 [256, 256]
0	0x3d7c04e3	0.061528098
1	0x3d6ece79	0.058302376
2	0xbdd00bf8	-0.10158533
3	0xbccedeb4	-0.025252678
4	0xbd194667	-0.037420657
5	0xbd556855	-0.052101452
6	0xbce3565c	-0.02775114
7	0xbdf9e7a1	-0.12202383
8	0xbd8b02e9	-0.067876644
9	0xbcbc92ac	-0.023019157
10	0x3d81ecbf	0.06343984
11	0x3d137165	0.035996813
12	0xbd1d2e4c	-0.03837423
13	0x3c60ff2f	0.0137327155
14	0xbd1d5e7c	-0.038420185
15	0xbd72d03d	-0.059280623
16	0xbd11450a	-0.03546623
17	0x3dea20b8	0.11432022
18	0x3d5db21e	0.054124944
19	0x3d29ea42	0.04148317
20	0xbcb123b7	-0.021623475
21	0xbcb561dd	-0.022141391
22	0x3da665ae	0.081248626
23	0xbd317f33	-0.043334197
24	0xbd83546c	-0.064125866
25	0xbe20c356	-0.15699515
26	0x3b2c7da2	0.002632
27	0x3d8c5bd5	0.06853453
28	0xbc85f742	-0.016353253
29	0xbdaed58a	-0.08536823
30	0xbb0f6cc0	-0.0021884888
31	0x3d22d529	0.039754067
32	0x3c78121b	0.015141035
33	0xbc42576a	-0.011861661
34	0xbb2cd3df	-0.0026371402
35	0x3da664b0	0.08124673
36	0x3d736fe8	0.059432894
37	0x3d0175d3	0.031606507
38	0x3db37c95	0.087639965
39	0xbdb573f6	-0.088600084
40	0xbd1d14dd	-0.038349975
41	0x3d8a11cc	0.06741676
42	0x3c9c4920	0.019077837
43	0xbd8506ba	-0.064954236
44	0x3cf047a6	0.02933104
45	0x3cfde9ac	0.030995212
46	0x3d019c8f	0.031643447
47	0xbd222529	-0.03958622
48	0xbc756d55	-0.01497968
49	0x3d876d93	0.066126965
50	0x3d760fd4	0.06007369
51	0xbcab0266	-0.020875167
52	0x3d3b7d42	0.045773752
53	0xbd50a96c	-0.050942823
54	0xbd9d17e0	-0.076705694
55	0xbdb9f7c9	-0.090804644
56	0xbe674ff5	-0.22589095
57	0xbd8d2a2e	-0.06892811
58	0x3b5a1864	0.0033278698
59	0xbd89ef70	-0.06735122
60	0x3c7f7f6e	0.015594346
61	0x3d25b4e7	0.040455725
62	0xbd81a281	-0.06329823
63	0x3c527833	0.012846041
64	0x3d8c3970	0.06846893
65	0xbe07a45d	-0.13246293
66	0x3dc5f9d7	0.09666794
67	0xbd254059	-0.04034457
68	0x3bb105aa	0.0054022865
69	0xbddef9b6	-0.10887472
70	0x3d08adfd	0.033369053
71	0xbd576347	-0.052584913
72	0xbd21bcf6	-0.039486848
73	0xbdbe4a29	-0.09291489
74	0x3cde9d21	0.027174534
75	0xbd8a5431	-0.067543395
76	0x3cac3f00	0.021026134
77	0x3ca2738a	0.019830484
78	0x3cd1a9a3	0.025593584
79	0xbd37c442	-0.0448649
80	0xbcdb7696	-0.026789945
81	0xbe1dd35e	-0.15412661
82	0xbd40b492	-0.047047205
83	0x3d42a7b0	0.0475232
84	0xbe55476c	-0.20828027
85	0x3da26d3d	0.07930992
86	0x3b5eb80e	0.0033984217
87	0x3cfbc464	0.030733295
88	0xbd7454fd	-0.059651364
89	0xbdec070f	-0.11524784
90	0xbc2993f3	-0.010350215
91	0x3d691f5a	0.056914665
92	0xbd830766	-0.063978955
93	0xbd951dc7	-0.0728107
94	0x3d658a97	0.056040373
95	0xbcf64022	-0.030059878
96	0xbcb7d9a3	-0.022442644
97	0x3c58766f	0.0132118305
98	0x3c164c4c	0.009173464
99	0x3cee3e81	0.029082539
100	0x3d8628d2	0.065507546
101	0x3d5bb6a1	0.053640965
102	0xbe37d46b	-0.17952125
103	0x3d3440e5	0.0440072
104	0xbdfb6449	-0.12274987
105	0x3c88a9db	0.016682556
106	0x3d586117	0.052826967
107	0x3cce5923	0.025188988
108	0x3d5e971a	0.05434332
109	0x3d28e9be	0.04123854
110	0xbddfaedf	-0.10922026
111	0x3bca67ce	0.0061769253
112	0xbdc2daf6	-0.0951442
113	0xbd520133	-0.051270675
114	0x3cdc98dd	0.02692836
115	0x3b83f5ce	0.004027105
116	0xbb7146b4	-0.0036815824
117	0xbd73d728	-0.05953136
118	0x3c9d487e	0.019199606
119	0xbdb4d250	-0.088291764
120	0xbd3f187f	-0.04665422
121	0xbd2b3d5d	-0.041806567
122	0x3d9d7ccf	0.07689821
123	0x3d992404	0.074775726
124	0xbd028265	-0.031862635
125	0xbd1b2864	-0.037880316
126	0xbdddc5f2	-0.10828771
127	0xbd40de9c	-0.047087297
128	0xbd5e0cf9	-0.05421159
129	0xbd02068b	-0.03174452
130	0xbac010f2	-0.0014653488
131	0xbc7dbcef	-0.01548694
132	0xbe0f3160	-0.13983679
133	0x3d8b7e08	0.06811148
134	0x3bab4130	0.005226277
135	0x3d8719cf	0.065967195
136	0xbdec1950	-0.115282655
137	0x3bde4efe	0.006784319
138	0xbdd1a8f3	-0.10237303
139	0x3b914793	0.004433581
140	0x3cb395e0	0.021922052
141	0xbe2b20af	-0.16711687
142	0x3d63e303	0.055636417
143	0xb9ff199a	-0.00048656465
144	0x3b577259	0.0032874553
145	0xbb748119	-0.0037308394
146	0x3d9ce19e	0.076602206
147	0xbc03df7d	-0.008048889
148	0xbe080123	-0.13281684
149	0xbd3ca74a	-0.046057977
150	0xbdba65bf	-0.09101438
151	0x3cb6c398	0.022310063
152	0xbd0b1019	-0.0339509
153	0xbc938be2	-0.018011037
154	0x3bd06504	0.0063596983
155	0xbd99e16e	-0.075137004
156	0x3cf3de13	0.02976898
157	0xbd3aa29a	-0.045565225
158	0xbd223884	-0.03960468
159	0x3c4040f5	0.011734237
160	0x3adb3026	0.0016722723
161	0x3d989ba4	0.07451561
162	0xb979b512	-0.00023813944
163	0x3da0dbe2	0.07854439
164	0xbca3413c	-0.019928567
165	0xbd03cfe9	-0.0321807
166	0x3d4ca6a0	0.049963593
167	0xbbdace40	-0.006677419
168	0xbe162586	-0.14662752
169	0xbd2b8ec8	-0.041884214
170	0x3d7fe1ef	0.062471326
171	0x3d047c57	0.032345142
172	0x3d1e53ad	0.03865402
173	0x3d637d42	0.055539377
174	0x3d83f13d	0.06442497
175	0x3d8bf728	0.06834251
176	0x3b379769	0.0028013831
177	0xbbb1491b	-0.005410326
178	0xbca9cef4	-0.020728566
179	0x3cec8713	0.028873002
180	0x3c3516f3	0.011052835
181	0x3a603386	0.00085525995
182	0xbd35d802	-0.044395454
183	0xbce909bb	-0.028447023
184	0xbd1f442f	-0.038883384
185	0xbd15b449	-0.036548886
186	0xbdb324dd	-0.087472655
187	0x3c8678bd	0.016414994
188	0xbdcfabc2	-0.10140182
189	0xbc9be21f	-0.019028721
190	0xbd338962	-0.04383219
191	0xbe033c68	-0.12816012
192	0xbbf77557	-0.00755183
193	0x3d258e9e	0.040419213
194	0xbe0a651f	-0.13515137
195	0xbdc0614e	-0.093935594
196	0x3d02f8ac	0.031975433
197	0xbce11143	-0.027474051
198	0x3d8fa2a4	0.07013443
199	0xbd1debb1	-0.03855485
200	0xbd1f9bac	-0.03896682
201	0x3da4b1bd	0.080417134
202	0x3d1d687b	0.03842972
203	0xbc14310a	-0.009044895
204	0xbd6d4547	-0.057927396
205	0xbc8b294d	-0.016987467
206	0xbd960b96	-0.073264286
207	0x3c40dcf0	0.011771426
208	0x3cd7e4be	0.02635419
209	0xbd355ee9	-0.044279967
210	0x3d9be1f6	0.07611458
211	0x3d98d633	0.0746273
212	0x3dc56598	0.09638518
213	0xbe0317d0	-0.12802052
214	0x3dee0e1b	0.11623784
215	0x3d2c04ac	0.041996643
216	0xbc897429	-0.016779022
217	0xbdff119a	-0.12454529
218	0xbe72886e	-0.23684856
219	0xbde0806b	-0.10961994
220	0xbc5114cd	-0.012761307
221	0xbd387069	-0.045029078
222	0x3d3d468a	0.04620985
223	0x3bae3d95	0.0053173997
224	0xbd894921	-0.06703401
225	0x3c5980af	0.0132753095
226	0xbd533f1a	-0.05157385
227	0xbd698e39	-0.0570204
228	0xbd98e3b1	-0.07465304
229	0xbadaa262	-0.0016680474
230	0xbd18511b	-0.037186723
231	0xbcf9a772	-0.030475352
232	0x3ca23885	0.019802341
233	0xbde78a44	-0.11305669
234	0x3d00afb7	0.031417575
235	0x3d9d2a34	0.07674065
236	0xbbf82983	-0.007573308
237	0xbc58d30e	-0.013233913
238	0xbe18a217	-0.14905582
239	0x3d6f0827	0.058357384
240	0x3dc0af77	0.09408467
241	0xbdacc9fe	-0.084369645
242	0x3d4b908d	0.0496984
243	0xbbba29bc	-0.0056812447
244	0x3d8e7761	0.069563635
245	0xbc83650f	-0.0160394
246	0x3d27a96a	0.04093305
247	0xbbc2b274	-0.0059416834
248	0xbe0dfccf	-0.1386597
249	0xbbd37162	-0.0064527253
250	0x3c0da66a	0.008645633
251	0xbbc864f0	-0.0061155483
252	0xbdd023f2	-0.10163106
253	0x3c7428c0	0.014902294
254	0xbcfed697	-0.031108184
255	0xbe13b90a	-0.14426056

fc2.bias f4 [256]
0	0x3d1bb46e	0.038013868
1	0x3d68d67d	0.056845177
2	0xbcd29f46	-0.025710713
3	0x3cfe98a1	0.031078639
4	0xbd205293	-0.03914125
5	0xbd7f5205	-0.06233408
6	0xbd69b68c	-0.057058856
7	0xbd4bf35a	-0.049792625
8	0x3dad84e8	0.084726155
9	0x3c42094b	0.011843036
10	0x3cb3fa99	0.02197008
11	0x3cc16f8a	0.023612756
12	0xbd267087	-0.04063466
13	0x3cc68687	0.02423407
14	0xbcab9e14	-0.020949401
15	0x3d9e78d3	0.07737889
16	0x3d1b9ed8	0.037993282
17	0xbc641567	-0.013921118
18	0xbca666c5	-0.020312676
19	0xbd3268f2	-0.043557115
20	0x3d73a7b6	0.059486113
21	0x3d70b10d	0.0587626
22	0xbd03d434	-0.032184795
23	0xbd3cca1d	-0.046091188
24	0x3da6f2f6	0.0815181
25	0x3d9e1f9a	0.07720871
26	0xbc339c19	-0.01096251
27	0x3d29c427	0.04144683
28	0x3d12d56b	0.035848062
29	0xbc7e8e8c	-0.0155369155
30	0x3d3273db	0.04356752
31	0x3d7fe447	0.06247356
32	0xba8988ba	-0.0010493018
33	0x3d0d68f1	0.034523908
34	0x3c5172b3	0.012783694
35	0x3d4dc638	0.050237864
36	0x3c9bc733	0.019015884
37	0x3b42e815	0.0029740382
38	0xbd42225c	-0.04739605
39	0xbc6a32c5	-0.014294331
40	0x3d1b8192	0.037965365
41	0xbbe6aa8b	-0.0070393733
42	0xbcd8cb44	-0.026464112
43	0xbc5225f1	-0.012826429
44	0xbacafbf0	-0.001548646
45	0x3cfe2671	0.03102419
46	0xbabaf22e	-0.0014262849
47	0x3d3fc456	0.0468181
48	0xbd79b03d	-0.06095909
49	0xbbc5d178	-0.0060369335
50	0x3d08efd5	0.033431847
51	0xbd900b17	-0.07033365
52	0x3d8cced4	0.06875387
53	0xbd0f9b64	-0.0350603
54	0x39efef83	0.00045764082
55	0x3d9df9bf	0.07713651
56	0xbd16dd67	-0.03683224
57	0x3d3db1ae	0.046312027
58	0x3cfcd058	0.030861065
59	0x3ba40c1e	0.0050063273
60	0x3d525704	0.051352516
61	0xbced8a65	-0.028996656
62	0xbd497339	-0.04918215
63	0x3c9762de	0.01847976
64	0xbcbfaab4	-0.023396827
65	0x3cc2fa5e	0.023801025
66	0xbafccf00	-0.0019287765
67	0xbbdb5390	-0.006693311
68	0xbc282d08	-0.010264643
69	0x3d95a7d2	0.073074
70	0xbc58be59	-0.013228976
71	0x3d85e865	0.06538466
72	0xbd3ce976	-0.046121083
73	0xbc9bbb0c	-0.01901009
74	0x3c3bd470	0.011464223
75	0x3d4eaf72	0.050460286
76	0x3d69266c	0.056921408
77	0xbd79fc93	-0.06103189
78	0xbda541e0	-0.08069205
79	0xbc7eb205	-0.015545373
80	0x3c4606c5	0.012086575
81	0xbd92fe0c	-0.07177362
82	0x3d18a3c7	0.037265565
83	0x3d90b7bc	0.070662946
84	0x3cfc6907	0.0308118
85	0xbd3dd265	-0.046343226
86	0xbd44d40a	-0.04805378
87	0x3c23f582	0.010007264
88	0x3cd10758	0.025516197
89	0xbd223ee2	-0.03961075
90	0x3bf1279e	0.007359459
91	0x3c852dc3	0.016257172
92	0xbcdfd66e	-0.027323928
93	0x3d2340f1	0.039856855
94	0x3cbb3802	0.022853855
95	0x3d96ef61	0.07369877
96	0x3d9b0c92	0.07570757
97	0xbd0b8ed9	-0.034071777
98	0x39d70a5b	0.0004101571
99	0xbd8d7188	-0.0690642
100	0x3d83e830	0.064407706
101	0x3cc5dd68	0.024153426
102	0xbd0a779b	-0.03380547
103	0x3ca28cf4	0.019842602
104	0x3da88234	0.08227959
105	0xbc64fef4	-0.013976801
106	0x3d209891	0.039208
107	0xbbcd0451	-0.006256618
108	0x3d33dc72	0.043911405
109	0x3d9a3de4	0.07531336
110	0xbd1664bc	-0.03671716
111	0x3cacd4b9	0.021097528
112	0xbce61399	-0.028085517
113	0xbce4feaa	-0.027953465
114	0xbc27d794	-0.010244269
115	0x3bf1538c	0.007364696
116	0xbd47b56a	-0.048756994
117	0xbbd37282	-0.0064528594
118	0xbd864205	-0.06555561
119	0x3db281fe	0.087162
120	0x3d26d968	0.04073468
121	0xbd25dd46	-0.040494226
122	0x3cc12164	0.023575492
123	0x3d22f14a	0.039780892
124	0x3c72816a	0.0148013625
125	0x3cd4595a	0.025921512
126	0xbcd5ba6a	-0.026089866
127	0xbbec3da5	-0.007209497
128	0x3d24b988	0.040216
129	0xbd57a22f	-0.052644905
130	0xbd94ee68	-0.07272035
131	0xbd1310a6	-0.03590455
132	0x3a0fb897	0.0005482523
133	0xbb92455b	-0.004463834
134	0xbca744b9	-0.020418512
135	0x3d9dd3fb	0.07706448
136	0xbaa18245	-0.0012322149
137	0xbd7d3612	-0.061819144
138	0x3c96fe02	0.018431667
139	0xbcf773d5	-0.0302066
140	0xbd9f4e0b	-0.077785574
141	0x3d34452e	0.044011287
142	0x3d564c2f	0.052318748
143	0xbd983e54	-0.07433763
144	0x3d2b145b	0.04176746
145	0x3d0a52c6	0.033770345
146	0x3c9490b0	0.018135399
147	0x3c113021	0.0088615725
148	0x3ce08e25	0.02741153
149	0xbcaf899d	-0.021427924
150	0xbcd28a48	-0.025700703
151	0x3c45739f	0.012051492
152	0x3daa0f28	0.08303672
153	0x3d5c6008	0.05380252
154	0x3d274a5e	0.040842406
155	0x3d781cfa	0.06057451
156	0xbd979111	-0.07400716
157	0x3d04e3ba	0.03244374
158	0xbc60cd18	-0.013720773
159	0x3b7f19c1	0.0038925263
160	0x3d0a94f8	0.033833474
161	0x3d4b2f33	0.04960556
162	0xbd02588d	-0.03182273
163	0x3d92fd2c	0.07177195
164	0x3d67930b	0.056536715
165	0xbc0a1323	-0.008427414
166	0x3c8800fe	0.016602036
167	0xbd12e766	-0.03586521
168	0x3c872c47	0.016500605
169	0x3ca37f28	0.019958094
170	0x3d02d967	0.031945612
171	0x3cdca061	0.026931943
172	0xbd3a1a42	-0.045435198
173	0xbd0bb639	-0.034109328
174	0xbc3ee5af	-0.0116514405
175	0xbca5bb36	-0.02023087
176	0x3dba525a	0.090977386
177	0x3d1491be	0.036271803
178	0xbd024b4f	-0.0318101
179	0xbce00df2	-0.0273504
180	0x3d104243	0.035219442
181	0xbc1ddd07	-0.009635217
182	0x3d8642ce	0.06555711
183	0x3d7c3ae1	0.06157959
184	0x3c4c1aad	0.012457532
185	0x3b818e5a	0.003953737
186	0xbd2cc43e	-0.04217934
187	0x3c8f2c3a	0.017477144
188	0x3cf58dca	0.029974837
189	0xbd3d8f11	-0.046279017
190	0x3cf9e29a	0.03050356
191	0xbd24c83e	-0.04023003
192	0xbd1df870	-0.038567007
193	0xbcaf9e89	-0.0214379
194	0x3d1d7614	0.038442686
195	0xbbf34b47	-0.0074247452
196	0x3d780175	0.060548265
197	0x39867123	0.00025642765
198	0xbd52310f	-0.051316317
199	0x3c85e77b	0.01634573
200	0xbc1ed7ee	-0.009695036
201	0x3d3fb3b4	0.046802238
202	0xbd4f2b71	-0.05057854
203	0x3d01e88e	0.031715922
204	0xbc3ef9f5	-0.011656274
205	0xbc2f02b7	-0.0106818
206	0xbd88b886	-0.0667582
207	0x3b82ed86	0.0039956
208	0x3d96aa62	0.07356717
209	0x3ca7f905	0.020504484
210	0xbd9d5e5a	-0.07684012
211	0x3d9642c9	0.07336957
212	0xbcf1821c	-0.029480986
213	0x3d937386	0.07199769
214	0x3b9c9682	0.004778684
215	0x3d2d600e	0.042327933
216	0x3d454577	0.04816195
217	0xbd01a895	-0.031654913
218	0xbd773334	-0.060351565
219	0x3cfa922b	0.030587276
220	0xbd53ef8b	-0.051742118
221	0x3d856a9b	0.06514474
222	0x3d9653e4	0.073402196
223	0x3d9acb43	0.075583
224	0xbd6e3995	-0.058160383
225	0x3da05179	0.0782804
226	0x3c97c05d	0.018524343
227	0x3d2f160c	0.042745635
228	0x3ce86e6b	0.028372964
229	0xbccda98c	-0.02510526
230	0xbd0fcd32	-0.0351078
231	0x3d4c9db5	0.04995509
232	0xbd30a06a	-0.043121733
233	0x3caf8164	0.021424003
234	0xbd4f3f46	-0.05059745
235	0x3d41ef34	0.047347263
236	0x3da3d1f6	0.07999031
237	0xbc934463	-0.017976945
238	0x3d6e3e33	0.058164787
239	0x3d5013e0	0.050800204
240	0xbd62d698	-0.055380434
241	0x3d6dbd77	0.058042016
242	0x3ce1afeb	0.027549705
243	0xbbf47e50	-0.0074613467
244	0x3d538a3b	0.0516455
245	0xbd08ee00	-0.0334301
246	0xbd2e4de9	-0.04255477
247	0xbc8bb12f	-0.017052261
248	0xbcc00017	-0.023437543
249	0x3d8dcc75	0.06923763
250	0x3cab9636	0.02094565
251	0xbc33b0ea	-0.010967473
252	0x3d5efc1b	0.054439645
253	0xbc108720	-0.008821279
254	0xbccaed04	-0.024771221
255	0xbd259bf3	-0.040431928

fc3.weight f4 [256, 256]
0	0xbcdc6305	-0.026902685
1	0xbd7c6e98	-0.061628908
2	0xbd50c540	-0.050969362
3	0x3cf95775	0.03043721
4	0x3bc1c497	0.005913328
5	0x3cc90a47	0.024541033
6	0xbc644ad5	-0.013933857
7	0x3d544f9c	0.051833734
8	0x3b12cdfe	0.0022400613
9	0xbd00c45e	-0.03143727
10	0xbd0c7f4d	-0.03430109
11	0xbbae4f20	-0.005319491
12	0xbb43fa3b	-0.0029903788
13	0xbbf13836	-0.007361437
14	0xbca7c56d	-0.020479882
15	0xbcb0d751	-0.021587046
16	0xbd7b1df8	-0.061307877
17	0xbd880fe1	-0.06643654
18	0xbd5ab432	-0.053394504
19	0xbd28bbaa	-0.041194595
20	0x3d4f697a	0.0506377
21	0xbd3f97c2	-0.046775587
22	0xbc5892e0	-0.0132186115
23	0x3d3d1bf5	0.04616924
24	0xbc069727	-0.008214748
25	0x3d46b593	0.048513006
26	0x3c4fbb01	0.012678863
27	0x3cd35d91	0.025801452
28	0xbd3a1622	-0.045431264
29	0xbd4eab72	-0.05045647
30	0x3d3b1031	0.04566974
31	0x3d33134d	0.04371958
32	0xbd37638d	-0.044772673
33	0x3caf4d59	0.021399187
34	0xbd45f8c6	-0.048332952
35	0xbcb8b1ee	-0.022545781
36	0xbc816536	-0.015795331
37	0x3cab44d4	0.020906843
38	0xbb7026a3	-0.0036644123
39	0x3d53c657	0.051702823
40	0x3c930572	0.017946932
41	0xbd2ca768	-0.04215184
42	0x3d28d984	0.041223064
43	0x3cb1d66e	0.021708693
44	0xbbdf7a92	-0.0068200314
45	0xbd2c433e	-0.042056315
46	0xbd20ae39	-0.03922865
47	0x3d04492f	0.032296356
48	0x3c191bfa	0.009345049
49	0xbc2c1cdc	-0.0105049275
50	0xbd541508	-0.05177787
51	0x3d29cfee	0.041458063
52	0x3b3829bc	0.0028101048
53	0x3c987020	0.018608153
54	0x3cc588db	0.02411311
55	0x3b33e7b6	0.0027451343
56	0x3cdb058e	0.026736047
57	0x3c6e10cc	0.014530372
58	0x3c18ce0d	0.00932647
59	0x3d3ead4c	0.046551988
60	0xbd4277ad	-0.047477413
61	0xbca58120	-0.020203173
62	0xbd087156	-0.03331121
63	0xbc4dc48b	-0.0125590665
64	0xbcd7ccf0	-0.026342839
65	0x3cbc05aa	0.02295192
66	0xbd4c5ca8	-0.04989305
67	0x3d7d0852	0.061775513
68	0xbd8a2913	-0.067461155
69	0xbd2238ce	-0.039604954
70	0xbd428e69	-0.047499094
71	0x3a8ba9bb	0.0010655442
72	0x3d23ddcc	0.040006444
73	0xbd3931d0	-0.04521352
74	0xbc13b3ea	-0.009015063
75	0xbd2958de	-0.041344516
76	0x3c98dc49	0.018659728
77	0x3d01cd06	0.031689666
78	0xbcf62937	-0.03004895
79	0xbd2f878c	-0.042853877
80	0x3c8187f8	0.015811905
81	0xbcaaae8e	-0.020835187
82	0x3b997308	0.0046829022
83	0xbc92ab72	-0.017904017
84	0xbd73888a	-0.059456386
85	0x3bd02d0d	0.0063530267
86	0x3c9af2b8	0.018914565
87	0x3cb6b0d0	0.022301108
88	0x3c790287	0.0151983565
89	0x3d584b2e	0.052806072
90	0xbd5fc339	-0.05462954
91	0x3b94da00	0.004542589
92	0x3d407ea0	0.04699576
93	0x3d5a0812	0.053230353
94	0xbd79e57a	-0.06100986
95	0x3d41624b	0.04721288
96	0x3d568582	0.052373417
97	0x3ce24a8f	0.027623443
98	0xbd29d82a	-0.041465916
99	0x3d089b3c	0.033351168
100	0xbcc7b5c7	-0.02437867
101	0x3d13d6dc	0.036093578
102	0xbd7566ba	-0.05991242
103	0x3ca254e0	0.019815862
104	0xbd0e0f9c	-0.034682855
105	0x3d26f127	0.040757325
106	0xbd0ab831	-0.033867065
107	0x3d540a9a	0.051767923
108	0x3d5f1d70	0.054471433
109	0xbd324ef7	-0.043532338
110	0x3c8a0db0	0.01685223
111	0xbbe72c33	-0.0070548295
112	0x3d52d629	0.05147377
113	0xbc8ab412	-0.016931567
114	0x3d19d8c6	0.037560247
115	0xbce6ea95	-0.02818803
116	0xbcdf8b5c	-0.027288131
117	0xbcfe69bd	-0.03105628
118	0x3bc26e20	0.005933538
119	0x3c7f60f7	0.015587083
120	0x3d2f8c0b	0.042858165
121	0x3ca69c64	0.020338245
122	0x3c568270	0.013092622
123	0x3bcb1610	0.0061976984
124	0x3d67324a	0.056444444
125	0xbc80ea36	-0.01573668
126	0xbceb42b4	-0.02871833
127	0x3bd216b6	0.0064113988
128	0x3c3ec3c7	0.011643357
129	0xbc8b2689	-0.016986148
130	0xbcc5dbc1	-0.024152638
131	0x3d0f695f	0.0350126
132	0x3b930b09	0.0044873995
133	0xbc7f96b3	-0.015599894
134	0x3cd22dfc	0.025656693
135	0x3c6ff4ef	0.014645799
136	0x3cf0c039	0.029388534
137	0xbd063d38	-0.032773226
138	0x3c1f51f4	0.009724129
139	0x3bd477e5	0.006484019
140	0xbc9d26c5	-0.019183526
141	0x3d05e0aa	0.03268496
142	0x3d05c2e4	0.032656565
143	0x3cc1c048	0.023651257
144	0xbcad7d95	-0.021178046
145	0xbd35e2b6	-0.04440566
146	0x3d53123f	0.051531073
147	0x3ceadd76	0.028670054
148	0x3d529461	0.051411036
149	0x3c4fb6d8	0.012677871
150	0x3c7a4850	0.01527603
151	0x3cf919f1	0.030407878
152	0x3d32f866	0.043693922
153	0x39e237e3	0.00043147718
154	0x3d417b3a	0.04723666
155	0x3c90ac23	0.017660206
156	0x3d0e30a4	0.034714356
157	0xbd553c19	-0.052059267
158	0xbd008ab0	-0.031382263
159	0xbca4a942	-0.02010024
160	0x3d66eb02	0.056376465
161	0x3d5bda18	0.053674787
162	0xbc47168d	-0.012151373
163	0x3d20bc47	0.039242055
164	0x3ccc3f29	0.02493246
165	0xbd81ca03	-0.06337359
166	0xbbefa420	-0.0073132664
167	0xbcf72c1a	-0.030172396
168	0xbd87ae0e	-0.06624995
169	0x3d44b04f	0.048019703
170	0x3d1f9921	0.038964394
171	0x3d52b91d	0.05144607
172	0xbcb80907	-0.022465242
173	0xbcf1b8f7	-0.029507143
174	0x3cf2cda7	0.029639078
175	0xbd0a5719	-0.03377447
176	0xbd80b6d2	-0.0628487
177	0xbc841dd2	-0.0161275
178	0xbbfa01cb	-0.0076296083
179	0x3cc6b025	0.024253914
180	0x3d2f4f9d	0.042800535
181	0x3d5e801f	0.054321405
182	0x3d6386e4	0.055548564
183	0xbcf091b7	-0.029366357
184	0xbd768bfd	-0.060192097
185	0xbba58578	-0.005051311
186	0x3d504b60	0.050853133
187	0x3d03a001	0.032135013
188	0xbc8c2c45	-0.017110953
189	0x3ce83dd7	0.0283498
190	0xbd3deb4b	-0.04636697
191	0xbd179f24	-0.037017003
192	0xbd0a951c	-0.033833608
193	0x3d671fe0	0.056426883
194	0xbad31478	-0.0016104123
195	0xbd02ca1b	-0.031931024
196	0x3d227340	0.039660692
197	0x3c61909c	0.013767388
198	0xbd41ccce	-0.047314458
199	0xbd840fe1	-0.06448341
200	0xbd859ea2	-0.065243974
201	0xbd337de7	-0.04382124
202	0x3d4b4142	0.04962278
203	0x3d2c2d9e	0.04203569
204	0xbd00e925	-0.031472344
205	0x3c9764af	0.018480627
206	0xbd2bed5c	-0.04197441
207	0x3d7d12c4	0.061785474
208	0xbd541ee5	-0.051787276
209	0x3c2d06b7	0.010560683
210	0x3c0276c0	0.0079628825
211	0xbcd00256	-0.025391739
212	0x3d563b7f	0.052302834
213	0xbd7aff94	-0.061278895
214	0x3d46b7d2	0.04851515
215	0x3cf1ee35	0.029532531
216	0xbd874a8d	-0.06606016
217	0x3cd98af4	0.026555516
218	0xbd2794b0	-0.040913284
219	0xbd0e3ab4	-0.034723952
220	0x3ca02b06	0.019551765
221	0xbcf9823d	-0.03045761
222	0xbd78d4b2	-0.060749717
223	0xba84b561	-0.0010124856
224	0xbcaf0edc	-0.02136939
225	0x3d0790d2	0.033097096
226	0x3c8da6de	0.017291483
227	0xbcad6626	-0.021166872
228	0xbcffaf1b	-0.031211426
229	0x3cd0eb10	0.025502712
230	0xbcf28d2c	-0.029608332
231	0xbcd3f831	-0.025875183
232	0x3a195952	0.00058497966
233	0x3d04ece2	0.03245247
234	0x3d62e28f	0.055391844
235	0x3d2f7092	0.042831965
236	0xbd5a64d1	-0.053318802
237	0x3bb276bc	0.005446283
238	0xbd2a961e	-0.04164707
239	0xbd035f5c	-0.032073364
240	0x3d53a814	0.051673964
241	0xbd728be9	-0.05921546
242	0xbd5dbe40	-0.054136515
243	0xbd45b7d1	-0.048271004
244	0x3d267082	0.04063464
245	0x3ce93190	0.028466016
246	0x39b3e53a	0.00034312328
247	0x3c9602d4	0.018311895
248	0x3d15aa3f	0.036539312
249	0x3c686d97	0.0141862845
250	0x3d751f3a	0.059844233
251	0xbc8acb52	-0.016942654
252	0xbc864f1a	-0.01639514
253	0xbc8b46bc	-0.017001502
254	0x3d6e69c9	0.058206353
255	0x3d5dcf78	0.054152936

fc3.bias f4 [256]
0	0x3c16b375	0.009198059
1	0x3c96e62e	0.018420305
2	0xbd2919d5	-0.0412844
3	0xbd053fdd	-0.032531608
4	0x3cb4d443	0.02207387
5	0xbcecc2fc	-0.02890157
6	0x3d9b62c8	0.075872004
7	0xbad4e157	-0.0016241473
8	0xbb93a8b8	-0.004506197
9	0xbc0e7f7d	-0.008697388
10	0xbd4df279	-0.050280068
11	0x3c11320e	0.008862032
12	0x3d57fd4f	0.05273181
13	0x3ccfc265	0.02536125
14	0x3d14a200	0.036287308
15	0xbd63e0a8	-0.05563417
16	0x3d20c8d5	0.03925403
17	0x3c3e9e00	0.01163435
18	0xbd809106	-0.06277661
19	0x3d2fdd4a	0.042935647
20	0x3d12c047	0.0358279
21	0x3d961299	0.07327766
22	0xbc4416f3	-0.011968362
23	0xbd0056ca	-0.03133277
24	0x3b8809cb	0.004151558
25	0x3d638062	0.055542357
26	0x3cf2c90b	0.02963688
27	0x3cf5f7b1	0.030025335
28	0x3ce21c9f	0.027601538
29	0x3cc1709e	0.02361327
30	0xbd4a95d9	-0.049459312
31	0xbd82b58f	-0.06382286
32	0x3c807ae1	0.015683593
33	0x3d65678e	0.05600696
34	0x3d9df346	0.07712416
35	0x3d47a69b	0.04874287
36	0x3c11f3ba	0.008908207
37	0x3d3bb535	0.04582711
38	0xbc5e3810	-0.013563171
39	0x3d866fc5	0.06564287
40	0xbd072593	-0.032994818
41	0x3c815674	0.015788294
42	0x3d4455fe	0.04793357
43	0x3d4fd2f3	0.050738286
44	0xbd6c5fed	-0.05770867
45	0xbd0a9864	-0.033836737
46	0x3d9563b9	0.07294411
47	0xbd5b0b15	-0.053477366
48	0xbc948cb9	-0.018133508
49	0xbb948981	-0.0045329933
50	0x3d0aaf07	0.033858325
51	0xbc1b622a	-0.009483853
52	0x3d93d2a4	0.07217911
53	0x3c1ab815	0.009443303
54	0xbc4c94e2	-0.012486668
55	0x3d12e0fe	0.0358591
56	0x3cf746be	0.0301851
57	0xbd2cf5ea	-0.04222671
58	0xbcfdeaaf	-0.030995695
59	0xbc022130	-0.007942483
60	0xbd90f3ad	-0.070777275
61	0x3d524b59	0.05134139
62	0x3d4beae5	0.04978456
63	0xbcfd586d	-0.030925954
64	0x3c97f4e3	0.018549388
65	0x3d9f5a7e	0.07780932
66	0x3d2e4341	0.042544607
67	0xbb838809	-0.0040140194
68	0xbd809548	-0.06278473
69	0xbc9b8498	-0.018984124
70	0x3c4c946e	0.01248656
71	0x3cf3fe14	0.02978424
72	0x3d66b3a2	0.056323655
73	0x3d6d4b73	0.057933282
74	0xbcf9f99e	-0.030514535
75	0xbcdd989d	-0.02705031
76	0xbc43290b	-0.011911641
77	0x3d19ce98	0.03755054
78	0x3c384c09	0.011248597
79	0x3da7c2e1	0.08191467
80	0xbd6f19d8	-0.058374256
81	0x3c7017e7	0.014654136
82	0xbd1f75a1	-0.03893054
83	0x3d2d0124	0.042237416
84	0xbd9dd57b	-0.07706734
85	0x3d312773	0.043250512
86	0x3c0830d0	0.008312419
87	0x3d4e442e	0.05035799
88	0x3d069c45	0.032863874
89	0x3d181e12	0.037138052
90	0xbd257792	-0.040397234
91	0x3d5697ca	0.05239085
92	0x3d41d382	0.04732085
93	0x3d66e392	0.05636937
94	0x3cda129d	0.026620204
95	0x3d975586	0.07389359
96	0x3d1226da	0.035681583
97	0xbc259546	-0.01010639
98	0x3d6dd7ad	0.058067013
99	0xbc334323	-0.0109413
100	0x3d110e21	0.035413865
101	0xbd073be8	-0.033016115
102	0x3d61f080	0.055161
103	0xbc951294	-0.018197335
104	0x3d71fa98	0.059076875
105	0x3d98e0dd	0.07464764
106	0x3c959d51	0.01826349
107	0x3d7cb445	0.061695356
108	0x3ddf74c0	0.1091094
109	0x3cdf4bbb	0.02725779
110	0xbcf51a55	-0.029919783
111	0x3da95366	0.0826786
112	0x3d590215	0.0529805
113	0xbd936974	-0.07197848
114	0xbcbd893d	-0.02313673
115	0x3d93b9c8	0.07213169
116	0x3c49022d	0.012268585
117	0xbce594e4	-0.028025098
118	0xbc2ae382	-0.010430219
119	0x3cc2347c	0.023706667
120	0x3c809134	0.015694238
121	0xbc8973ef	-0.016778914
122	0x3d9e5ee7	0.07732945
123	0xbd066991	-0.03281552
124	0xbc8231ad	-0.015892828
125	0xbc592a43	-0.013254705
126	0xbc4ad23a	-0.0123792235
127	0x3c8e4a90	0.017369539
128	0xbbf13050	-0.0073604956
129	0x3c20bbd6	0.009810409
130	0xbd93b92c	-0.07213053
131	0xbcff1076	-0.031135779
132	0xbd345cad	-0.044033695
133	0xbb09425a	-0.002094409
134	0xbd1f9094	-0.03895624
135	0xbd981e52	-0.07427658
136	0xbc7df3b0	-0.015499994
137	0x3c4dcbcb	0.012560795
138	0x3d0f5cf7	0.035000768
139	0xbd4b7f75	-0.0496821
140	0x3d0dcb90	0.03461796
141	0xbca55c2c	-0.020185553
142	0xbcade092	-0.021225248
143	0xbd0dadd6	-0.03458961
144	0xbcea00b9	-0.028564798
145	0x3d69b668	0.05705872
146	0xbd2eb8ba	-0.042656638
147	0xbd32574e	-0.04354029
148	0xba81cd36	-0.0009903077
149	0x3da168d0	0.078813195
150	0xbd0db5f3	-0.03459735
151	0xbd97398f	-0.07384025
152	0x3bfd57ae	0.0077313995
153	0xb9949be9	-0.00028344922
154	0xbd1df5e2	-0.03856457
155	0xbc63bd5c	-0.013900127
156	0xbc664afb	-0.014055963
157	0x3d885fc6	0.06658892
158	0x3d71314a	0.058884896
159	0x3d6bd0cc	0.05757217
160	0x3d038030	0.03210467
161	0x3c7af6f9	0.015317672
162	0x3db2b421	0.08725763
163	0x3d0f0aa7	0.03492227
164	0xbcb4a69c	-0.022052102
165	0x3c04daed	0.008108837
166	0xbb87c0ff	-0.00414288
167	0xbd094a4c	-0.03351812
168	0xbc562c5e	-0.013072101
169	0xbd8ee5f1	-0.069774516
170	0x3c314420	0.010819465
171	0x3d896858	0.06709355
172	0x3d1f1389	0.03883699
173	0xbc3a5fc8	-0.011375375
174	0x3d4d0ec7	0.05006292
175	0xbcfa4dfa	-0.03055476
176	0x3ccd9d56	0.025099438
177	0x3d72c840	0.059273005
178	0x3d4a81f9	0.049440358
179	0xbcdd912a	-0.027046759
180	0x3cd19d91	0.025587829
181	0x3d997658	0.074932754
182	0x3b6725c7	0.003527032
183	0xbb714333	-0.0036813735
184	0x3d9ef518	0.07761592
185	0xbd3c496b	-0.045968454
186	0x3d0ed920	0.034875035
187	0x3c5dbca8	0.013533749
188	0x3c35899c	0.011080172
189	0x3d6bd380	0.05757475
190	0xbd07741a	-0.033069707
191	0xbcf6ab79	-0.030111061
192	0x3d2a468e	0.041571192
193	0x3c9f6ef4	0.019462086
194	0xbd383ca9	-0.044979725
195	0x3befbb54	0.0073160324
196	0xbd12db67	-0.03585377
197	0xbc6eaf62	-0.014568182
198	0xbce4a6d0	-0.027911574
199	0xbd6676ad	-0.05626552
200	0x3cb498a8	0.022045448
201	0xbbf2ba44	-0.0074074585
202	0x3d97d235	0.07413141
203	0xbcbdaf7d	-0.023154968
204	0x3cc47e23	0.023985928
205	0x3d9d899d	0.07692263
206	0x3cf0689e	0.02934676
207	0x3da97437	0.08274119
208	0x3d500a73	0.050791215
209	0xbda1660d	-0.07880793
210	0xbd68b813	-0.05681617
211	0x3d606bbf	0.054790255
212	0x3d34ede1	0.04417217
213	0xbd914d8a	-0.070948675
214	0x3d1d98ee	0.038475923
215	0x3d101688	0.035177737
216	0x3d5d0a3e	0.053964846
217	0x3cc10177	0.023560269
218	0x3cd03331	0.025415035
219	0x3d01552b	0.031575363
220	0xbd7cae62	-0.061689742
221	0x3d1c1164	0.038102522
222	0xbd8d2579	-0.06891913
223	0xbd697bbb	-0.057002764
224	0x3d1ea60c	0.038732573
225	0xbd646165	-0.055756945
226	0xbcc6983a	-0.02424251
227	0xbd829753	-0.06376519
228	0x3d33150b	0.04372124
229	0xbd5f7a7b	-0.054560166
230	0xbce53e82	-0.027983908
231	0xbd374907	-0.04474738
232	0xbc2d4c31	-0.0105772475
233	0xbcd30589	-0.025759475
234	0x3d452d13	0.04813869
235	0xbcde3019	-0.027122544
236	0x3cc0cab8	0.023534164
237	0x3d57b8d3	0.052666496
238	0x3c8f6565	0.017504403
239	0xbd8f016c	-0.06982693
240	0x3cce3e64	0.025176235
241	0xbd7ca9ef	-0.0616855
242	0x3d5623e9	0.05228034
243	0x3d05ec18	0.03269586
244	0xbc84924c	-0.016183041
245	0x3d16818f	0.03674465
246	0xbd695510	-0.056965888
247	0x3d5de8ac	0.05417697
248	0x3c95eddc	0.018301897
249	0x3d4475a7	0.047963765
250	0xbcb86fac	-0.022514187
251	0x3c94cd3a	0.018164266
252	0xbc668d48	-0.01407177
253	0xbc6a47a9	-0.014299312
254	0xbd9e2117	-0.07721155
255	0x3ce61e61	0.028090658

fc4.weight f4 [1, 256]
0	0xbd030e0e	-0.031995825
1	0xbd1be59a	-0.038060762
2	0x3b625526	0.0034535616
3	0x3d3acb1b	0.045603853
4	0x3db6f8a7	0.089341454
5	0xbcff3472	-0.031152938
6	0x3e1666db	0.14687674
7	0x3d470f0c	0.048598334
8	0xbcc2ef5f	-0.023795782
9	0x3cb95ea7	0.022628142
10	0xbcea7f47	-0.028625144
11	0xbd1a1938	-0.037621707
12	0x3dafced9	0.08584375
13	0x3d26fe8b	0.040770095
14	0x3d699db9	0.05703518
15	0xbd14ddb5	-0.03634425
16	0x3d852d33	0.06502762
17	0x3d4caf18	0.04997167
18	0xbd536e47	-0.05161884
19	0xbcc597c0	-0.024120212
20	0x3d76e17e	0.06027364
21	0x3d2a00f6	0.041504823
22	0x3d0612be	0.032732718
23	0x3cff00d8	0.031128332
24	0x3d114fb1	0.03547639
25	0x3d8f66f7	0.07002061
26	0x3cd2ca49	0.025731223
27	0x3d8041b7	0.06262534
28	0x3d4cf500	0.050038338
29	0x3cf52295	0.029923717
30	0x3c4e0257	0.0125738
31	0xbcccaa08	-0.024983421
32	0x3c8f41c1	0.017487409
33	0x3cfba8a7	0.030720068
34	0x3d4a1b69	0.049342547
35	0x3d78bc39	0.060726378
36	0xbcd18a9e	-0.025578793
37	0xbcd892db	-0.026437214
38	0xbd394f16	-0.045241438
39	0x3dab0c73	0.08351984
40	0x3cd8f173	0.02648232
41	0x3d1d8a22	0.03846181
42	0xbd6954cf	-0.056965645
43	0x3d2747c7	0.040839937
44	0xbd016f62	-0.031600364
45	0x3a878180	0.0010338277
46	0x3d42677b	0.047461968
47	0x3cb9dc22	0.022687975
48	0x3d1a4ef2	0.037672944
49	0x3d9b1459	0.075722404
50	0xbc42c651	-0.011888103
51	0x3d338a09	0.043832812
52	0x3d92d26b	0.0716904
53	0xbaaaa6eb	-0.0013019716
54	0x3d8e3539	0.06943745
55	0x3bec8ef0	0.007219188
56	0xbbaa218c	-0.0051919874
57	0x3d4558a4	0.048180237
58	0x3d1b8aa7	0.037974026
59	0xbe15c3c8	-0.14625466
60	0xbd0cf12f	-0.034409698
61	0xbd52bc4f	-0.051449116
62	0xbd5f1048	-0.054458886
63	0xbc5c74f1	-0.013455615
64	0x3cf9c1f6	0.030487996
65	0x3cf3f857	0.029781504
66	0x3da782f7	0.081792764
67	0xbb52ee84	-0.0032185623
68	0xbc98b509	-0.018641012
69	0x3d6267d3	0.055274796
70	0xbbc778a6	-0.0060873805
71	0x3d8cf4d1	0.068826325
72	0xbe93f919	-0.28900984
73	0xbd176c5e	-0.03696858
74	0xbcd38ab9	-0.025822984
75	0x3da9ea1d	0.08296607
76	0x3d6de44d	0.058079053
77	0xbbf34618	-0.0074241273
78	0x3cd78ff5	0.026313761
79	0x3e4912aa	0.19636026
80	0xbcfb364c	-0.03066554
81	0x3da6a18c	0.08136281
82	0xbc114553	-0.008866626
83	0x3d1b3eea	0.037901796
84	0xbbf32cae	-0.0074210977
85	0xbcbf59b1	-0.023358198
86	0x3b2c6100	0.0026302934
87	0x3bd8a660	0.0066116303
88	0x3cd10e0f	0.025519399
89	0xbd1bb110	-0.038010657
90	0x3dae622b	0.08514818
91	0xbaf2822b	-0.0018501928
92	0xbd337f57	-0.043822613
93	0xbd93987c	-0.072068185
94	0xbcdaed66	-0.026724529
95	0xbe9641ff	-0.29347226
96	0xbd00a0e3	-0.031403434
97	0x3daf09a4	0.08546761
98	0x3ce9ec98	0.0285552
99	0xbd0e03f6	-0.034671746
100	0xbd39930d	-0.045306254
101	0x3ce3e74b	0.02782025
102	0xbcfa29f6	-0.030537587
103	0xbbd2b905	-0.0064307475
104	0xbd15269e	-0.03641378
105	0xbe51f2b1	-0.20502736
106	0x3cc5330f	0.024072198
107	0x3d0fe013	0.035125803
108	0x3e4bf06d	0.19915934
109	0x3d239352	0.039935417
110	0x3d589e9c	0.052885637
111	0x3d133b76	0.03594538
112	0x3d2666a5	0.040625233
113	0xbb7ffd83	-0.0039061017
114	0xbc295279	-0.010334604
115	0x3dad3d31	0.08458937
116	0x3dbba6ca	0.09162672
117	0x3d0d77d4	0.034538105
118	0xbe4310fc	-0.19049448
119	0x3da3744f	0.079811685
120	0x3daa67a0	0.08320546
121	0xbc5850bb	-0.013202841
122	0x3da2f14c	0.0795618
123	0xbc20f3d5	-0.009823759
124	0xbcb52030	-0.022110075
125	0xbce8909b	-0.028389266
126	0xbc799de0	-0.015235394
127	0x3ab5b7dd	0.0013864
128	0x3b87cab0	0.0041440353
129	0xbbfa8d4b	-0.007646238
130	0x3d1e64db	0.038670402
131	0x3b672e1c	0.0035275286
132	0xbcbb174d	-0.02283826
133	0x3986b2e4	0.00025691756
134	0xbc75774f	-0.014982059
135	0x3d32660c	0.04355435
136	0xba6cfc2b	-0.00090402615
137	0x3cd365f0	0.025805444
138	0x3b27d85d	0.002561114
139	0x3cb2848d	0.02179172
140	0xbd4ab164	-0.04948558
141	0xbbfeb073	-0.007772499
142	0x3ba394a9	0.004992087
143	0x3cf3346c	0.029688083
144	0x3d819926	0.06328039
145	0x3c3b04b8	0.011414699
146	0x3c789594	0.015172381
147	0xbb7fdf25	-0.0039042917
148	0xbc87168c	-0.016490243
149	0x3d58bea3	0.05291618
150	0xbc576fa9	-0.01314918
151	0x3bbda2a2	0.0057872096
152	0xbd5eb79c	-0.054374322
153	0xbc0d2b78	-0.008616321
154	0xbd14c567	-0.03632107
155	0x38030018	3.123292e-05
156	0x3c36a584	0.01114786
157	0x3d258449	0.04040936
158	0x3d2026f4	0.03909965
159	0x3d373794	0.044730738
160	0xbbe3fad1	-0.00695739
161	0xbd272590	-0.040807307
162	0x3d110c95	0.03541239
163	0x3d11b3ea	0.03557197
164	0x3d65ea76	0.056131802
165	0x3d9a960f	0.07548153
166	0x3d171fc3	0.036895525
167	0xbd0e4a24	-0.034738675
168	0x3d80b7f0	0.06285083
169	0xbd10974e	-0.035300545
170	0xbd34254b	-0.043980878
171	0x3d503e65	0.050840754
172	0xbcfd589b	-0.03092604
173	0xbcf984b8	-0.030458793
174	0xbc91f171	-0.017815324
175	0xbcb33339	-0.02187501
176	0x3e7fa213	0.2496417
177	0x3d96af89	0.073576994
178	0xbc8ff6c6	-0.017573725
179	0xbd626252	-0.055269547
180	0x3d4cc116	0.04998883
181	0x3d33fa54	0.043939903
182	0x3bb56c6e	0.0055366075
183	0xbc2279ee	-0.009916766
184	0x3ceb2a8f	0.028706817
185	0xbbf97f08	-0.0076140203
186	0x3d4ec4d6	0.050480686
187	0xbcbda140	-0.023148179
188	0xbb68899a	-0.0035482408
189	0xbd5ecbad	-0.05439346
190	0x3d02a7b4	0.031898215
191	0x3bb8fee2	0.005645619
192	0x3dad0d0c	0.08449754
193	0xbc8f87cd	-0.01752081
194	0x3d021efd	0.031767834
195	0x3da439d7	0.080188446
196	0xbc969ab0	-0.018384308
197	0xbd5eebdf	-0.054424163
198	0x3a435700	0.00074516237
199	0xbd4177af	-0.04723328
200	0x3d6e1786	0.058127902
201	0x3d4c2ee6	0.049849413
202	0x3db3a1e6	0.08771114
203	0x3c1b7f2a	0.0094907675
204	0xbb86622f	-0.00410106
205	0xbe285dc3	-0.16442017
206	0xbe829a72	-0.25508457
207	0x3d188c2a	0.037243046
208	0xbcd6b548	-0.026209489
209	0xbbded93c	-0.0068007987
210	0x3ceb7b15	0.028745214
211	0x3d84b14d	0.0647913
212	0x3d7e835e	0.062137
213	0x3c4a1df7	0.012336246
214	0xbd5501b2	-0.05200357
215	0x3d9899c7	0.07451206
216	0x3dd35850	0.10319579
217	0x3d26cdf8	0.04072377
218	0x3da2d990	0.07951653
219	0x3b8f425e	0.0043719253
220	0x3b2a7f4a	0.0026015812
221	0xbd0485b7	-0.032354083
222	0xbd3be71b	-0.045874696
223	0x3b64d1d3	0.0034915104
224	0xbca78712	-0.020450149
225	0xb83ce957	-4.5040008e-05
226	0x3d20d987	0.03926995
227	0xbcc25061	-0.023719968
228	0x3d07cc93	0.03315408
229	0x3d657bb2	0.05602617
230	0x3dd23738	0.102644384
231	0xbd34df4d	-0.04415827
232	0x3d24d435	0.04024144
233	0x3dab739a	0.083716586
234	0xbcea9ab3	-0.02863822
235	0x3d2c8321	0.04211724
236	0xbd2ead4b	-0.042645734
237	0xbbf7038a	-0.0075382637
238	0xbc97b697	-0.018519683
239	0xbceb25e4	-0.028704591
240	0xbcb2f2af	-0.021844236
241	0x3cd16191	0.025559219
242	0x3d97b464	0.07407454
243	0x3be9fefb	0.0071409917
244	0x3b72d3cb	0.0037052508
245	0x3da21d84	0.07915786
246	0x3d5b7e5e	0.05358731
247	0xbc1e0b92	-0.009646313
248	0xbb83cf00	-0.004022479
249	0x3d98994b	0.07451113
250	0xbd395e9c	-0.045256242
251	0xbcf9c42b	-0.030489048
252	0x3c712bf8	0.014719956
253	0x3d47f462	0.048817046
254	0x3a4629f8	0.00075593544
255	0x3d274e41	0.040846113
